saved_model_schema_version: 1
meta_graphs {
  meta_info_def {
    stripped_op_list {
      op {
        name: "Add"
        input_arg {
          name: "x"
          type_attr: "T"
        }
        input_arg {
          name: "y"
          type_attr: "T"
        }
        output_arg {
          name: "z"
          type_attr: "T"
        }
        attr {
          name: "T"
          type: "type"
          allowed_values {
            list {
              type: DT_HALF
              type: DT_FLOAT
              type: DT_DOUBLE
              type: DT_UINT8
              type: DT_INT8
              type: DT_INT16
              type: DT_INT32
              type: DT_INT64
              type: DT_COMPLEX64
              type: DT_COMPLEX128
              type: DT_STRING
            }
          }
        }
      }
      op {
        name: "AddN"
        input_arg {
          name: "inputs"
          type_attr: "T"
          number_attr: "N"
        }
        output_arg {
          name: "sum"
          type_attr: "T"
        }
        attr {
          name: "N"
          type: "int"
          has_minimum: true
          minimum: 1
        }
        attr {
          name: "T"
          type: "type"
          allowed_values {
            list {
              type: DT_FLOAT
              type: DT_DOUBLE
              type: DT_INT64
              type: DT_INT32
              type: DT_UINT8
              type: DT_UINT16
              type: DT_INT16
              type: DT_INT8
              type: DT_COMPLEX64
              type: DT_COMPLEX128
              type: DT_QINT8
              type: DT_QUINT8
              type: DT_QINT32
              type: DT_HALF
            }
          }
        }
        is_aggregate: true
        is_commutative: true
      }
      op {
        name: "ApplyAdam"
        input_arg {
          name: "var"
          type_attr: "T"
          is_ref: true
        }
        input_arg {
          name: "m"
          type_attr: "T"
          is_ref: true
        }
        input_arg {
          name: "v"
          type_attr: "T"
          is_ref: true
        }
        input_arg {
          name: "beta1_power"
          type_attr: "T"
        }
        input_arg {
          name: "beta2_power"
          type_attr: "T"
        }
        input_arg {
          name: "lr"
          type_attr: "T"
        }
        input_arg {
          name: "beta1"
          type_attr: "T"
        }
        input_arg {
          name: "beta2"
          type_attr: "T"
        }
        input_arg {
          name: "epsilon"
          type_attr: "T"
        }
        input_arg {
          name: "grad"
          type_attr: "T"
        }
        output_arg {
          name: "out"
          type_attr: "T"
          is_ref: true
        }
        attr {
          name: "T"
          type: "type"
          allowed_values {
            list {
              type: DT_FLOAT
              type: DT_DOUBLE
              type: DT_INT64
              type: DT_INT32
              type: DT_UINT8
              type: DT_UINT16
              type: DT_INT16
              type: DT_INT8
              type: DT_COMPLEX64
              type: DT_COMPLEX128
              type: DT_QINT8
              type: DT_QUINT8
              type: DT_QINT32
              type: DT_HALF
            }
          }
        }
        attr {
          name: "use_locking"
          type: "bool"
          default_value {
            b: false
          }
        }
        attr {
          name: "use_nesterov"
          type: "bool"
          default_value {
            b: false
          }
        }
      }
      op {
        name: "Assign"
        input_arg {
          name: "ref"
          type_attr: "T"
          is_ref: true
        }
        input_arg {
          name: "value"
          type_attr: "T"
        }
        output_arg {
          name: "output_ref"
          type_attr: "T"
          is_ref: true
        }
        attr {
          name: "T"
          type: "type"
        }
        attr {
          name: "validate_shape"
          type: "bool"
          default_value {
            b: true
          }
        }
        attr {
          name: "use_locking"
          type: "bool"
          default_value {
            b: true
          }
        }
        allows_uninitialized_input: true
      }
      op {
        name: "AssignAdd"
        input_arg {
          name: "ref"
          type_attr: "T"
          is_ref: true
        }
        input_arg {
          name: "value"
          type_attr: "T"
        }
        output_arg {
          name: "output_ref"
          type_attr: "T"
          is_ref: true
        }
        attr {
          name: "T"
          type: "type"
          allowed_values {
            list {
              type: DT_FLOAT
              type: DT_DOUBLE
              type: DT_INT64
              type: DT_INT32
              type: DT_UINT8
              type: DT_UINT16
              type: DT_INT16
              type: DT_INT8
              type: DT_COMPLEX64
              type: DT_COMPLEX128
              type: DT_QINT8
              type: DT_QUINT8
              type: DT_QINT32
              type: DT_HALF
            }
          }
        }
        attr {
          name: "use_locking"
          type: "bool"
          default_value {
            b: false
          }
        }
      }
      op {
        name: "BroadcastGradientArgs"
        input_arg {
          name: "s0"
          type_attr: "T"
        }
        input_arg {
          name: "s1"
          type_attr: "T"
        }
        output_arg {
          name: "r0"
          type_attr: "T"
        }
        output_arg {
          name: "r1"
          type_attr: "T"
        }
        attr {
          name: "T"
          type: "type"
          default_value {
            type: DT_INT32
          }
          allowed_values {
            list {
              type: DT_INT32
              type: DT_INT64
            }
          }
        }
      }
      op {
        name: "Cast"
        input_arg {
          name: "x"
          type_attr: "SrcT"
        }
        output_arg {
          name: "y"
          type_attr: "DstT"
        }
        attr {
          name: "SrcT"
          type: "type"
        }
        attr {
          name: "DstT"
          type: "type"
        }
      }
      op {
        name: "ConcatOffset"
        input_arg {
          name: "concat_dim"
          type: DT_INT32
        }
        input_arg {
          name: "shape"
          type: DT_INT32
          number_attr: "N"
        }
        output_arg {
          name: "offset"
          type: DT_INT32
          number_attr: "N"
        }
        attr {
          name: "N"
          type: "int"
          has_minimum: true
          minimum: 2
        }
      }
      op {
        name: "ConcatV2"
        input_arg {
          name: "values"
          type_attr: "T"
          number_attr: "N"
        }
        input_arg {
          name: "axis"
          type_attr: "Tidx"
        }
        output_arg {
          name: "output"
          type_attr: "T"
        }
        attr {
          name: "N"
          type: "int"
          has_minimum: true
          minimum: 2
        }
        attr {
          name: "T"
          type: "type"
        }
        attr {
          name: "Tidx"
          type: "type"
          default_value {
            type: DT_INT32
          }
          allowed_values {
            list {
              type: DT_INT32
              type: DT_INT64
            }
          }
        }
      }
      op {
        name: "Const"
        output_arg {
          name: "output"
          type_attr: "dtype"
        }
        attr {
          name: "value"
          type: "tensor"
        }
        attr {
          name: "dtype"
          type: "type"
        }
      }
      op {
        name: "DynamicStitch"
        input_arg {
          name: "indices"
          type: DT_INT32
          number_attr: "N"
        }
        input_arg {
          name: "data"
          type_attr: "T"
          number_attr: "N"
        }
        output_arg {
          name: "merged"
          type_attr: "T"
        }
        attr {
          name: "N"
          type: "int"
          has_minimum: true
          minimum: 1
        }
        attr {
          name: "T"
          type: "type"
        }
      }
      op {
        name: "ExpandDims"
        input_arg {
          name: "input"
          type_attr: "T"
        }
        input_arg {
          name: "dim"
          type_attr: "Tdim"
        }
        output_arg {
          name: "output"
          type_attr: "T"
        }
        attr {
          name: "T"
          type: "type"
        }
        attr {
          name: "Tdim"
          type: "type"
          default_value {
            type: DT_INT32
          }
          allowed_values {
            list {
              type: DT_INT32
              type: DT_INT64
            }
          }
        }
      }
      op {
        name: "Fill"
        input_arg {
          name: "dims"
          type: DT_INT32
        }
        input_arg {
          name: "value"
          type_attr: "T"
        }
        output_arg {
          name: "output"
          type_attr: "T"
        }
        attr {
          name: "T"
          type: "type"
        }
      }
      op {
        name: "Floor"
        input_arg {
          name: "x"
          type_attr: "T"
        }
        output_arg {
          name: "y"
          type_attr: "T"
        }
        attr {
          name: "T"
          type: "type"
          allowed_values {
            list {
              type: DT_HALF
              type: DT_FLOAT
              type: DT_DOUBLE
            }
          }
        }
      }
      op {
        name: "FloorDiv"
        input_arg {
          name: "x"
          type_attr: "T"
        }
        input_arg {
          name: "y"
          type_attr: "T"
        }
        output_arg {
          name: "z"
          type_attr: "T"
        }
        attr {
          name: "T"
          type: "type"
          allowed_values {
            list {
              type: DT_HALF
              type: DT_FLOAT
              type: DT_DOUBLE
              type: DT_UINT8
              type: DT_INT8
              type: DT_UINT16
              type: DT_INT16
              type: DT_INT32
              type: DT_INT64
              type: DT_COMPLEX64
              type: DT_COMPLEX128
            }
          }
        }
      }
      op {
        name: "FloorMod"
        input_arg {
          name: "x"
          type_attr: "T"
        }
        input_arg {
          name: "y"
          type_attr: "T"
        }
        output_arg {
          name: "z"
          type_attr: "T"
        }
        attr {
          name: "T"
          type: "type"
          allowed_values {
            list {
              type: DT_INT32
              type: DT_INT64
              type: DT_FLOAT
              type: DT_DOUBLE
            }
          }
        }
      }
      op {
        name: "Greater"
        input_arg {
          name: "x"
          type_attr: "T"
        }
        input_arg {
          name: "y"
          type_attr: "T"
        }
        output_arg {
          name: "z"
          type: DT_BOOL
        }
        attr {
          name: "T"
          type: "type"
          allowed_values {
            list {
              type: DT_FLOAT
              type: DT_DOUBLE
              type: DT_INT32
              type: DT_INT64
              type: DT_UINT8
              type: DT_INT16
              type: DT_INT8
              type: DT_UINT16
              type: DT_HALF
            }
          }
        }
      }
      op {
        name: "HistogramSummary"
        input_arg {
          name: "tag"
          type: DT_STRING
        }
        input_arg {
          name: "values"
          type_attr: "T"
        }
        output_arg {
          name: "summary"
          type: DT_STRING
        }
        attr {
          name: "T"
          type: "type"
          default_value {
            type: DT_FLOAT
          }
          allowed_values {
            list {
              type: DT_FLOAT
              type: DT_DOUBLE
              type: DT_INT32
              type: DT_INT64
              type: DT_UINT8
              type: DT_INT16
              type: DT_INT8
              type: DT_UINT16
              type: DT_HALF
            }
          }
        }
      }
      op {
        name: "Identity"
        input_arg {
          name: "input"
          type_attr: "T"
        }
        output_arg {
          name: "output"
          type_attr: "T"
        }
        attr {
          name: "T"
          type: "type"
        }
      }
      op {
        name: "LogicalAnd"
        input_arg {
          name: "x"
          type: DT_BOOL
        }
        input_arg {
          name: "y"
          type: DT_BOOL
        }
        output_arg {
          name: "z"
          type: DT_BOOL
        }
        is_commutative: true
      }
      op {
        name: "LogicalNot"
        input_arg {
          name: "x"
          type: DT_BOOL
        }
        output_arg {
          name: "y"
          type: DT_BOOL
        }
      }
      op {
        name: "MatMul"
        input_arg {
          name: "a"
          type_attr: "T"
        }
        input_arg {
          name: "b"
          type_attr: "T"
        }
        output_arg {
          name: "product"
          type_attr: "T"
        }
        attr {
          name: "transpose_a"
          type: "bool"
          default_value {
            b: false
          }
        }
        attr {
          name: "transpose_b"
          type: "bool"
          default_value {
            b: false
          }
        }
        attr {
          name: "T"
          type: "type"
          allowed_values {
            list {
              type: DT_HALF
              type: DT_FLOAT
              type: DT_DOUBLE
              type: DT_INT32
              type: DT_COMPLEX64
              type: DT_COMPLEX128
            }
          }
        }
      }
      op {
        name: "Maximum"
        input_arg {
          name: "x"
          type_attr: "T"
        }
        input_arg {
          name: "y"
          type_attr: "T"
        }
        output_arg {
          name: "z"
          type_attr: "T"
        }
        attr {
          name: "T"
          type: "type"
          allowed_values {
            list {
              type: DT_HALF
              type: DT_FLOAT
              type: DT_DOUBLE
              type: DT_INT32
              type: DT_INT64
            }
          }
        }
        is_commutative: true
      }
      op {
        name: "Mean"
        input_arg {
          name: "input"
          type_attr: "T"
        }
        input_arg {
          name: "reduction_indices"
          type_attr: "Tidx"
        }
        output_arg {
          name: "output"
          type_attr: "T"
        }
        attr {
          name: "keep_dims"
          type: "bool"
          default_value {
            b: false
          }
        }
        attr {
          name: "T"
          type: "type"
          allowed_values {
            list {
              type: DT_FLOAT
              type: DT_DOUBLE
              type: DT_INT64
              type: DT_INT32
              type: DT_UINT8
              type: DT_UINT16
              type: DT_INT16
              type: DT_INT8
              type: DT_COMPLEX64
              type: DT_COMPLEX128
              type: DT_QINT8
              type: DT_QUINT8
              type: DT_QINT32
              type: DT_HALF
            }
          }
        }
        attr {
          name: "Tidx"
          type: "type"
          default_value {
            type: DT_INT32
          }
          allowed_values {
            list {
              type: DT_INT32
              type: DT_INT64
            }
          }
        }
      }
      op {
        name: "MergeSummary"
        input_arg {
          name: "inputs"
          type: DT_STRING
          number_attr: "N"
        }
        output_arg {
          name: "summary"
          type: DT_STRING
        }
        attr {
          name: "N"
          type: "int"
          has_minimum: true
          minimum: 1
        }
      }
      op {
        name: "MergeV2Checkpoints"
        input_arg {
          name: "checkpoint_prefixes"
          type: DT_STRING
        }
        input_arg {
          name: "destination_prefix"
          type: DT_STRING
        }
        attr {
          name: "delete_old_dirs"
          type: "bool"
          default_value {
            b: true
          }
        }
        is_stateful: true
      }
      op {
        name: "Mul"
        input_arg {
          name: "x"
          type_attr: "T"
        }
        input_arg {
          name: "y"
          type_attr: "T"
        }
        output_arg {
          name: "z"
          type_attr: "T"
        }
        attr {
          name: "T"
          type: "type"
          allowed_values {
            list {
              type: DT_HALF
              type: DT_FLOAT
              type: DT_DOUBLE
              type: DT_UINT8
              type: DT_INT8
              type: DT_UINT16
              type: DT_INT16
              type: DT_INT32
              type: DT_INT64
              type: DT_COMPLEX64
              type: DT_COMPLEX128
            }
          }
        }
        is_commutative: true
      }
      op {
        name: "Neg"
        input_arg {
          name: "x"
          type_attr: "T"
        }
        output_arg {
          name: "y"
          type_attr: "T"
        }
        attr {
          name: "T"
          type: "type"
          allowed_values {
            list {
              type: DT_HALF
              type: DT_FLOAT
              type: DT_DOUBLE
              type: DT_INT32
              type: DT_INT64
              type: DT_COMPLEX64
              type: DT_COMPLEX128
            }
          }
        }
      }
      op {
        name: "NoOp"
      }
      op {
        name: "Pack"
        input_arg {
          name: "values"
          type_attr: "T"
          number_attr: "N"
        }
        output_arg {
          name: "output"
          type_attr: "T"
        }
        attr {
          name: "N"
          type: "int"
          has_minimum: true
          minimum: 1
        }
        attr {
          name: "T"
          type: "type"
        }
        attr {
          name: "axis"
          type: "int"
          default_value {
            i: 0
          }
        }
      }
      op {
        name: "Placeholder"
        output_arg {
          name: "output"
          type_attr: "dtype"
        }
        attr {
          name: "dtype"
          type: "type"
        }
        attr {
          name: "shape"
          type: "shape"
          default_value {
            shape {
              unknown_rank: true
            }
          }
        }
      }
      op {
        name: "Prod"
        input_arg {
          name: "input"
          type_attr: "T"
        }
        input_arg {
          name: "reduction_indices"
          type_attr: "Tidx"
        }
        output_arg {
          name: "output"
          type_attr: "T"
        }
        attr {
          name: "keep_dims"
          type: "bool"
          default_value {
            b: false
          }
        }
        attr {
          name: "T"
          type: "type"
          allowed_values {
            list {
              type: DT_FLOAT
              type: DT_DOUBLE
              type: DT_INT64
              type: DT_INT32
              type: DT_UINT8
              type: DT_UINT16
              type: DT_INT16
              type: DT_INT8
              type: DT_COMPLEX64
              type: DT_COMPLEX128
              type: DT_QINT8
              type: DT_QUINT8
              type: DT_QINT32
              type: DT_HALF
            }
          }
        }
        attr {
          name: "Tidx"
          type: "type"
          default_value {
            type: DT_INT32
          }
          allowed_values {
            list {
              type: DT_INT32
              type: DT_INT64
            }
          }
        }
      }
      op {
        name: "RandomStandardNormal"
        input_arg {
          name: "shape"
          type_attr: "T"
        }
        output_arg {
          name: "output"
          type_attr: "dtype"
        }
        attr {
          name: "seed"
          type: "int"
          default_value {
            i: 0
          }
        }
        attr {
          name: "seed2"
          type: "int"
          default_value {
            i: 0
          }
        }
        attr {
          name: "dtype"
          type: "type"
          allowed_values {
            list {
              type: DT_HALF
              type: DT_FLOAT
              type: DT_DOUBLE
            }
          }
        }
        attr {
          name: "T"
          type: "type"
          allowed_values {
            list {
              type: DT_INT32
              type: DT_INT64
            }
          }
        }
        is_stateful: true
      }
      op {
        name: "RandomUniform"
        input_arg {
          name: "shape"
          type_attr: "T"
        }
        output_arg {
          name: "output"
          type_attr: "dtype"
        }
        attr {
          name: "seed"
          type: "int"
          default_value {
            i: 0
          }
        }
        attr {
          name: "seed2"
          type: "int"
          default_value {
            i: 0
          }
        }
        attr {
          name: "dtype"
          type: "type"
          allowed_values {
            list {
              type: DT_HALF
              type: DT_FLOAT
              type: DT_DOUBLE
            }
          }
        }
        attr {
          name: "T"
          type: "type"
          allowed_values {
            list {
              type: DT_INT32
              type: DT_INT64
            }
          }
        }
        is_stateful: true
      }
      op {
        name: "Range"
        input_arg {
          name: "start"
          type_attr: "Tidx"
        }
        input_arg {
          name: "limit"
          type_attr: "Tidx"
        }
        input_arg {
          name: "delta"
          type_attr: "Tidx"
        }
        output_arg {
          name: "output"
          type_attr: "Tidx"
        }
        attr {
          name: "Tidx"
          type: "type"
          default_value {
            type: DT_INT32
          }
          allowed_values {
            list {
              type: DT_FLOAT
              type: DT_DOUBLE
              type: DT_INT32
              type: DT_INT64
            }
          }
        }
      }
      op {
        name: "Rank"
        input_arg {
          name: "input"
          type_attr: "T"
        }
        output_arg {
          name: "output"
          type: DT_INT32
        }
        attr {
          name: "T"
          type: "type"
        }
      }
      op {
        name: "RealDiv"
        input_arg {
          name: "x"
          type_attr: "T"
        }
        input_arg {
          name: "y"
          type_attr: "T"
        }
        output_arg {
          name: "z"
          type_attr: "T"
        }
        attr {
          name: "T"
          type: "type"
          allowed_values {
            list {
              type: DT_HALF
              type: DT_FLOAT
              type: DT_DOUBLE
              type: DT_UINT8
              type: DT_INT8
              type: DT_UINT16
              type: DT_INT16
              type: DT_INT32
              type: DT_INT64
              type: DT_COMPLEX64
              type: DT_COMPLEX128
            }
          }
        }
      }
      op {
        name: "Relu"
        input_arg {
          name: "features"
          type_attr: "T"
        }
        output_arg {
          name: "activations"
          type_attr: "T"
        }
        attr {
          name: "T"
          type: "type"
          allowed_values {
            list {
              type: DT_FLOAT
              type: DT_DOUBLE
              type: DT_INT32
              type: DT_INT64
              type: DT_UINT8
              type: DT_INT16
              type: DT_INT8
              type: DT_UINT16
              type: DT_HALF
            }
          }
        }
      }
      op {
        name: "ReluGrad"
        input_arg {
          name: "gradients"
          type_attr: "T"
        }
        input_arg {
          name: "features"
          type_attr: "T"
        }
        output_arg {
          name: "backprops"
          type_attr: "T"
        }
        attr {
          name: "T"
          type: "type"
          allowed_values {
            list {
              type: DT_FLOAT
              type: DT_DOUBLE
              type: DT_INT32
              type: DT_INT64
              type: DT_UINT8
              type: DT_INT16
              type: DT_INT8
              type: DT_UINT16
              type: DT_HALF
            }
          }
        }
      }
      op {
        name: "Reshape"
        input_arg {
          name: "tensor"
          type_attr: "T"
        }
        input_arg {
          name: "shape"
          type_attr: "Tshape"
        }
        output_arg {
          name: "output"
          type_attr: "T"
        }
        attr {
          name: "T"
          type: "type"
        }
        attr {
          name: "Tshape"
          type: "type"
          default_value {
            type: DT_INT32
          }
          allowed_values {
            list {
              type: DT_INT32
              type: DT_INT64
            }
          }
        }
      }
      op {
        name: "RestoreV2"
        input_arg {
          name: "prefix"
          type: DT_STRING
        }
        input_arg {
          name: "tensor_names"
          type: DT_STRING
        }
        input_arg {
          name: "shape_and_slices"
          type: DT_STRING
        }
        output_arg {
          name: "tensors"
          type_list_attr: "dtypes"
        }
        attr {
          name: "dtypes"
          type: "list(type)"
          has_minimum: true
          minimum: 1
        }
        is_stateful: true
      }
      op {
        name: "SaveV2"
        input_arg {
          name: "prefix"
          type: DT_STRING
        }
        input_arg {
          name: "tensor_names"
          type: DT_STRING
        }
        input_arg {
          name: "shape_and_slices"
          type: DT_STRING
        }
        input_arg {
          name: "tensors"
          type_list_attr: "dtypes"
        }
        attr {
          name: "dtypes"
          type: "list(type)"
          has_minimum: true
          minimum: 1
        }
        is_stateful: true
      }
      op {
        name: "ScalarSummary"
        input_arg {
          name: "tags"
          type: DT_STRING
        }
        input_arg {
          name: "values"
          type_attr: "T"
        }
        output_arg {
          name: "summary"
          type: DT_STRING
        }
        attr {
          name: "T"
          type: "type"
          allowed_values {
            list {
              type: DT_FLOAT
              type: DT_DOUBLE
              type: DT_INT32
              type: DT_INT64
              type: DT_UINT8
              type: DT_INT16
              type: DT_INT8
              type: DT_UINT16
              type: DT_HALF
            }
          }
        }
      }
      op {
        name: "Shape"
        input_arg {
          name: "input"
          type_attr: "T"
        }
        output_arg {
          name: "output"
          type_attr: "out_type"
        }
        attr {
          name: "T"
          type: "type"
        }
        attr {
          name: "out_type"
          type: "type"
          default_value {
            type: DT_INT32
          }
          allowed_values {
            list {
              type: DT_INT32
              type: DT_INT64
            }
          }
        }
      }
      op {
        name: "ShapeN"
        input_arg {
          name: "input"
          type_attr: "T"
          number_attr: "N"
        }
        output_arg {
          name: "output"
          type_attr: "out_type"
          number_attr: "N"
        }
        attr {
          name: "N"
          type: "int"
          has_minimum: true
          minimum: 1
        }
        attr {
          name: "T"
          type: "type"
        }
        attr {
          name: "out_type"
          type: "type"
          default_value {
            type: DT_INT32
          }
          allowed_values {
            list {
              type: DT_INT32
              type: DT_INT64
            }
          }
        }
      }
      op {
        name: "ShardedFilename"
        input_arg {
          name: "basename"
          type: DT_STRING
        }
        input_arg {
          name: "shard"
          type: DT_INT32
        }
        input_arg {
          name: "num_shards"
          type: DT_INT32
        }
        output_arg {
          name: "filename"
          type: DT_STRING
        }
      }
      op {
        name: "Sigmoid"
        input_arg {
          name: "x"
          type_attr: "T"
        }
        output_arg {
          name: "y"
          type_attr: "T"
        }
        attr {
          name: "T"
          type: "type"
          allowed_values {
            list {
              type: DT_HALF
              type: DT_FLOAT
              type: DT_DOUBLE
              type: DT_COMPLEX64
              type: DT_COMPLEX128
            }
          }
        }
      }
      op {
        name: "SigmoidGrad"
        input_arg {
          name: "x"
          type_attr: "T"
        }
        input_arg {
          name: "y"
          type_attr: "T"
        }
        output_arg {
          name: "z"
          type_attr: "T"
        }
        attr {
          name: "T"
          type: "type"
          allowed_values {
            list {
              type: DT_HALF
              type: DT_FLOAT
              type: DT_DOUBLE
              type: DT_COMPLEX64
              type: DT_COMPLEX128
            }
          }
        }
      }
      op {
        name: "Slice"
        input_arg {
          name: "input"
          type_attr: "T"
        }
        input_arg {
          name: "begin"
          type_attr: "Index"
        }
        input_arg {
          name: "size"
          type_attr: "Index"
        }
        output_arg {
          name: "output"
          type_attr: "T"
        }
        attr {
          name: "T"
          type: "type"
        }
        attr {
          name: "Index"
          type: "type"
          allowed_values {
            list {
              type: DT_INT32
              type: DT_INT64
            }
          }
        }
      }
      op {
        name: "Square"
        input_arg {
          name: "x"
          type_attr: "T"
        }
        output_arg {
          name: "y"
          type_attr: "T"
        }
        attr {
          name: "T"
          type: "type"
          allowed_values {
            list {
              type: DT_HALF
              type: DT_FLOAT
              type: DT_DOUBLE
              type: DT_INT32
              type: DT_INT64
              type: DT_COMPLEX64
              type: DT_COMPLEX128
            }
          }
        }
      }
      op {
        name: "StridedSlice"
        input_arg {
          name: "input"
          type_attr: "T"
        }
        input_arg {
          name: "begin"
          type_attr: "Index"
        }
        input_arg {
          name: "end"
          type_attr: "Index"
        }
        input_arg {
          name: "strides"
          type_attr: "Index"
        }
        output_arg {
          name: "output"
          type_attr: "T"
        }
        attr {
          name: "T"
          type: "type"
        }
        attr {
          name: "Index"
          type: "type"
          allowed_values {
            list {
              type: DT_INT32
              type: DT_INT64
            }
          }
        }
        attr {
          name: "begin_mask"
          type: "int"
          default_value {
            i: 0
          }
        }
        attr {
          name: "end_mask"
          type: "int"
          default_value {
            i: 0
          }
        }
        attr {
          name: "ellipsis_mask"
          type: "int"
          default_value {
            i: 0
          }
        }
        attr {
          name: "new_axis_mask"
          type: "int"
          default_value {
            i: 0
          }
        }
        attr {
          name: "shrink_axis_mask"
          type: "int"
          default_value {
            i: 0
          }
        }
      }
      op {
        name: "StringJoin"
        input_arg {
          name: "inputs"
          type: DT_STRING
          number_attr: "N"
        }
        output_arg {
          name: "output"
          type: DT_STRING
        }
        attr {
          name: "N"
          type: "int"
          has_minimum: true
          minimum: 1
        }
        attr {
          name: "separator"
          type: "string"
          default_value {
            s: ""
          }
        }
      }
      op {
        name: "Sub"
        input_arg {
          name: "x"
          type_attr: "T"
        }
        input_arg {
          name: "y"
          type_attr: "T"
        }
        output_arg {
          name: "z"
          type_attr: "T"
        }
        attr {
          name: "T"
          type: "type"
          allowed_values {
            list {
              type: DT_HALF
              type: DT_FLOAT
              type: DT_DOUBLE
              type: DT_INT32
              type: DT_INT64
              type: DT_COMPLEX64
              type: DT_COMPLEX128
            }
          }
        }
      }
      op {
        name: "Sum"
        input_arg {
          name: "input"
          type_attr: "T"
        }
        input_arg {
          name: "reduction_indices"
          type_attr: "Tidx"
        }
        output_arg {
          name: "output"
          type_attr: "T"
        }
        attr {
          name: "keep_dims"
          type: "bool"
          default_value {
            b: false
          }
        }
        attr {
          name: "T"
          type: "type"
          allowed_values {
            list {
              type: DT_FLOAT
              type: DT_DOUBLE
              type: DT_INT64
              type: DT_INT32
              type: DT_UINT8
              type: DT_UINT16
              type: DT_INT16
              type: DT_INT8
              type: DT_COMPLEX64
              type: DT_COMPLEX128
              type: DT_QINT8
              type: DT_QUINT8
              type: DT_QINT32
              type: DT_HALF
            }
          }
        }
        attr {
          name: "Tidx"
          type: "type"
          default_value {
            type: DT_INT32
          }
          allowed_values {
            list {
              type: DT_INT32
              type: DT_INT64
            }
          }
        }
      }
      op {
        name: "Tile"
        input_arg {
          name: "input"
          type_attr: "T"
        }
        input_arg {
          name: "multiples"
          type_attr: "Tmultiples"
        }
        output_arg {
          name: "output"
          type_attr: "T"
        }
        attr {
          name: "T"
          type: "type"
        }
        attr {
          name: "Tmultiples"
          type: "type"
          default_value {
            type: DT_INT32
          }
          allowed_values {
            list {
              type: DT_INT32
              type: DT_INT64
            }
          }
        }
      }
      op {
        name: "Transpose"
        input_arg {
          name: "x"
          type_attr: "T"
        }
        input_arg {
          name: "perm"
          type_attr: "Tperm"
        }
        output_arg {
          name: "y"
          type_attr: "T"
        }
        attr {
          name: "T"
          type: "type"
        }
        attr {
          name: "Tperm"
          type: "type"
          default_value {
            type: DT_INT32
          }
          allowed_values {
            list {
              type: DT_INT32
              type: DT_INT64
            }
          }
        }
      }
      op {
        name: "VariableV2"
        output_arg {
          name: "ref"
          type_attr: "dtype"
          is_ref: true
        }
        attr {
          name: "shape"
          type: "shape"
        }
        attr {
          name: "dtype"
          type: "type"
        }
        attr {
          name: "container"
          type: "string"
          default_value {
            s: ""
          }
        }
        attr {
          name: "shared_name"
          type: "string"
          default_value {
            s: ""
          }
        }
        is_stateful: true
      }
    }
    tags: "serve"
    tensorflow_version: "1.3.0"
    tensorflow_git_version: "b\'unknown\'"
  }
  graph_def {
    node {
      name: "input"
      op: "Placeholder"
      attr {
        key: "_output_shapes"
        value {
          list {
            shape {
              dim {
                size: -1
              }
              dim {
                size: 9
              }
            }
          }
        }
      }
      attr {
        key: "dtype"
        value {
          type: DT_FLOAT
        }
      }
      attr {
        key: "shape"
        value {
          shape {
            dim {
              size: -1
            }
            dim {
              size: 9
            }
          }
        }
      }
    }
    node {
      name: "Placeholder"
      op: "Placeholder"
      attr {
        key: "_output_shapes"
        value {
          list {
            shape {
              dim {
                size: -1
              }
              dim {
                size: 1
              }
            }
          }
        }
      }
      attr {
        key: "dtype"
        value {
          type: DT_FLOAT
        }
      }
      attr {
        key: "shape"
        value {
          shape {
            dim {
              size: -1
            }
            dim {
              size: 1
            }
          }
        }
      }
    }
    node {
      name: "fm/random_normal/shape"
      op: "Const"
      attr {
        key: "_output_shapes"
        value {
          list {
            shape {
              dim {
                size: 2
              }
            }
          }
        }
      }
      attr {
        key: "dtype"
        value {
          type: DT_INT32
        }
      }
      attr {
        key: "value"
        value {
          tensor {
            dtype: DT_INT32
            tensor_shape {
              dim {
                size: 2
              }
            }
            tensor_content: "\t\000\000\000\n\000\000\000"
          }
        }
      }
    }
    node {
      name: "fm/random_normal/mean"
      op: "Const"
      attr {
        key: "_output_shapes"
        value {
          list {
            shape {
            }
          }
        }
      }
      attr {
        key: "dtype"
        value {
          type: DT_FLOAT
        }
      }
      attr {
        key: "value"
        value {
          tensor {
            dtype: DT_FLOAT
            tensor_shape {
            }
            float_val: 0.0
          }
        }
      }
    }
    node {
      name: "fm/random_normal/stddev"
      op: "Const"
      attr {
        key: "_output_shapes"
        value {
          list {
            shape {
            }
          }
        }
      }
      attr {
        key: "dtype"
        value {
          type: DT_FLOAT
        }
      }
      attr {
        key: "value"
        value {
          tensor {
            dtype: DT_FLOAT
            tensor_shape {
            }
            float_val: 0.009999999776482582
          }
        }
      }
    }
    node {
      name: "fm/random_normal/RandomStandardNormal"
      op: "RandomStandardNormal"
      input: "fm/random_normal/shape"
      attr {
        key: "T"
        value {
          type: DT_INT32
        }
      }
      attr {
        key: "_output_shapes"
        value {
          list {
            shape {
              dim {
                size: 9
              }
              dim {
                size: 10
              }
            }
          }
        }
      }
      attr {
        key: "dtype"
        value {
          type: DT_FLOAT
        }
      }
      attr {
        key: "seed"
        value {
          i: 1548318758
        }
      }
      attr {
        key: "seed2"
        value {
          i: 5
        }
      }
    }
    node {
      name: "fm/random_normal/mul"
      op: "Mul"
      input: "fm/random_normal/RandomStandardNormal"
      input: "fm/random_normal/stddev"
      attr {
        key: "T"
        value {
          type: DT_FLOAT
        }
      }
      attr {
        key: "_output_shapes"
        value {
          list {
            shape {
              dim {
                size: 9
              }
              dim {
                size: 10
              }
            }
          }
        }
      }
    }
    node {
      name: "fm/random_normal"
      op: "Add"
      input: "fm/random_normal/mul"
      input: "fm/random_normal/mean"
      attr {
        key: "T"
        value {
          type: DT_FLOAT
        }
      }
      attr {
        key: "_output_shapes"
        value {
          list {
            shape {
              dim {
                size: 9
              }
              dim {
                size: 10
              }
            }
          }
        }
      }
    }
    node {
      name: "fm/feature_embeddings"
      op: "VariableV2"
      attr {
        key: "_output_shapes"
        value {
          list {
            shape {
              dim {
                size: 9
              }
              dim {
                size: 10
              }
            }
          }
        }
      }
      attr {
        key: "container"
        value {
          s: ""
        }
      }
      attr {
        key: "dtype"
        value {
          type: DT_FLOAT
        }
      }
      attr {
        key: "shape"
        value {
          shape {
            dim {
              size: 9
            }
            dim {
              size: 10
            }
          }
        }
      }
      attr {
        key: "shared_name"
        value {
          s: ""
        }
      }
    }
    node {
      name: "fm/feature_embeddings/Assign"
      op: "Assign"
      input: "fm/feature_embeddings"
      input: "fm/random_normal"
      attr {
        key: "T"
        value {
          type: DT_FLOAT
        }
      }
      attr {
        key: "_class"
        value {
          list {
            s: "loc:@fm/feature_embeddings"
          }
        }
      }
      attr {
        key: "_output_shapes"
        value {
          list {
            shape {
              dim {
                size: 9
              }
              dim {
                size: 10
              }
            }
          }
        }
      }
      attr {
        key: "use_locking"
        value {
          b: true
        }
      }
      attr {
        key: "validate_shape"
        value {
          b: true
        }
      }
    }
    node {
      name: "fm/feature_embeddings/read"
      op: "Identity"
      input: "fm/feature_embeddings"
      attr {
        key: "T"
        value {
          type: DT_FLOAT
        }
      }
      attr {
        key: "_class"
        value {
          list {
            s: "loc:@fm/feature_embeddings"
          }
        }
      }
      attr {
        key: "_output_shapes"
        value {
          list {
            shape {
              dim {
                size: 9
              }
              dim {
                size: 10
              }
            }
          }
        }
      }
    }
    node {
      name: "fm/Reshape/shape"
      op: "Const"
      attr {
        key: "_output_shapes"
        value {
          list {
            shape {
              dim {
                size: 3
              }
            }
          }
        }
      }
      attr {
        key: "dtype"
        value {
          type: DT_INT32
        }
      }
      attr {
        key: "value"
        value {
          tensor {
            dtype: DT_INT32
            tensor_shape {
              dim {
                size: 3
              }
            }
            tensor_content: "\377\377\377\377\t\000\000\000\001\000\000\000"
          }
        }
      }
    }
    node {
      name: "fm/Reshape"
      op: "Reshape"
      input: "input"
      input: "fm/Reshape/shape"
      attr {
        key: "T"
        value {
          type: DT_FLOAT
        }
      }
      attr {
        key: "Tshape"
        value {
          type: DT_INT32
        }
      }
      attr {
        key: "_output_shapes"
        value {
          list {
            shape {
              dim {
                size: -1
              }
              dim {
                size: 9
              }
              dim {
                size: 1
              }
            }
          }
        }
      }
    }
    node {
      name: "fm/random_uniform/shape"
      op: "Const"
      attr {
        key: "_output_shapes"
        value {
          list {
            shape {
              dim {
                size: 2
              }
            }
          }
        }
      }
      attr {
        key: "dtype"
        value {
          type: DT_INT32
        }
      }
      attr {
        key: "value"
        value {
          tensor {
            dtype: DT_INT32
            tensor_shape {
              dim {
                size: 2
              }
            }
            tensor_content: "\t\000\000\000\001\000\000\000"
          }
        }
      }
    }
    node {
      name: "fm/random_uniform/min"
      op: "Const"
      attr {
        key: "_output_shapes"
        value {
          list {
            shape {
            }
          }
        }
      }
      attr {
        key: "dtype"
        value {
          type: DT_FLOAT
        }
      }
      attr {
        key: "value"
        value {
          tensor {
            dtype: DT_FLOAT
            tensor_shape {
            }
            float_val: 0.0
          }
        }
      }
    }
    node {
      name: "fm/random_uniform/max"
      op: "Const"
      attr {
        key: "_output_shapes"
        value {
          list {
            shape {
            }
          }
        }
      }
      attr {
        key: "dtype"
        value {
          type: DT_FLOAT
        }
      }
      attr {
        key: "value"
        value {
          tensor {
            dtype: DT_FLOAT
            tensor_shape {
            }
            float_val: 1.0
          }
        }
      }
    }
    node {
      name: "fm/random_uniform/RandomUniform"
      op: "RandomUniform"
      input: "fm/random_uniform/shape"
      attr {
        key: "T"
        value {
          type: DT_INT32
        }
      }
      attr {
        key: "_output_shapes"
        value {
          list {
            shape {
              dim {
                size: 9
              }
              dim {
                size: 1
              }
            }
          }
        }
      }
      attr {
        key: "dtype"
        value {
          type: DT_FLOAT
        }
      }
      attr {
        key: "seed"
        value {
          i: 1548318758
        }
      }
      attr {
        key: "seed2"
        value {
          i: 16
        }
      }
    }
    node {
      name: "fm/random_uniform/sub"
      op: "Sub"
      input: "fm/random_uniform/max"
      input: "fm/random_uniform/min"
      attr {
        key: "T"
        value {
          type: DT_FLOAT
        }
      }
      attr {
        key: "_output_shapes"
        value {
          list {
            shape {
            }
          }
        }
      }
    }
    node {
      name: "fm/random_uniform/mul"
      op: "Mul"
      input: "fm/random_uniform/RandomUniform"
      input: "fm/random_uniform/sub"
      attr {
        key: "T"
        value {
          type: DT_FLOAT
        }
      }
      attr {
        key: "_output_shapes"
        value {
          list {
            shape {
              dim {
                size: 9
              }
              dim {
                size: 1
              }
            }
          }
        }
      }
    }
    node {
      name: "fm/random_uniform"
      op: "Add"
      input: "fm/random_uniform/mul"
      input: "fm/random_uniform/min"
      attr {
        key: "T"
        value {
          type: DT_FLOAT
        }
      }
      attr {
        key: "_output_shapes"
        value {
          list {
            shape {
              dim {
                size: 9
              }
              dim {
                size: 1
              }
            }
          }
        }
      }
    }
    node {
      name: "fm/feature_bias_0"
      op: "VariableV2"
      attr {
        key: "_output_shapes"
        value {
          list {
            shape {
              dim {
                size: 9
              }
              dim {
                size: 1
              }
            }
          }
        }
      }
      attr {
        key: "container"
        value {
          s: ""
        }
      }
      attr {
        key: "dtype"
        value {
          type: DT_FLOAT
        }
      }
      attr {
        key: "shape"
        value {
          shape {
            dim {
              size: 9
            }
            dim {
              size: 1
            }
          }
        }
      }
      attr {
        key: "shared_name"
        value {
          s: ""
        }
      }
    }
    node {
      name: "fm/feature_bias_0/Assign"
      op: "Assign"
      input: "fm/feature_bias_0"
      input: "fm/random_uniform"
      attr {
        key: "T"
        value {
          type: DT_FLOAT
        }
      }
      attr {
        key: "_class"
        value {
          list {
            s: "loc:@fm/feature_bias_0"
          }
        }
      }
      attr {
        key: "_output_shapes"
        value {
          list {
            shape {
              dim {
                size: 9
              }
              dim {
                size: 1
              }
            }
          }
        }
      }
      attr {
        key: "use_locking"
        value {
          b: true
        }
      }
      attr {
        key: "validate_shape"
        value {
          b: true
        }
      }
    }
    node {
      name: "fm/feature_bias_0/read"
      op: "Identity"
      input: "fm/feature_bias_0"
      attr {
        key: "T"
        value {
          type: DT_FLOAT
        }
      }
      attr {
        key: "_class"
        value {
          list {
            s: "loc:@fm/feature_bias_0"
          }
        }
      }
      attr {
        key: "_output_shapes"
        value {
          list {
            shape {
              dim {
                size: 9
              }
              dim {
                size: 1
              }
            }
          }
        }
      }
    }
    node {
      name: "fm/Mul"
      op: "Mul"
      input: "fm/feature_bias_0/read"
      input: "fm/Reshape"
      attr {
        key: "T"
        value {
          type: DT_FLOAT
        }
      }
      attr {
        key: "_output_shapes"
        value {
          list {
            shape {
              dim {
                size: -1
              }
              dim {
                size: 9
              }
              dim {
                size: 1
              }
            }
          }
        }
      }
    }
    node {
      name: "fm/Sum/reduction_indices"
      op: "Const"
      attr {
        key: "_output_shapes"
        value {
          list {
            shape {
            }
          }
        }
      }
      attr {
        key: "dtype"
        value {
          type: DT_INT32
        }
      }
      attr {
        key: "value"
        value {
          tensor {
            dtype: DT_INT32
            tensor_shape {
            }
            int_val: 2
          }
        }
      }
    }
    node {
      name: "fm/Sum"
      op: "Sum"
      input: "fm/Mul"
      input: "fm/Sum/reduction_indices"
      attr {
        key: "T"
        value {
          type: DT_FLOAT
        }
      }
      attr {
        key: "Tidx"
        value {
          type: DT_INT32
        }
      }
      attr {
        key: "_output_shapes"
        value {
          list {
            shape {
              dim {
                size: -1
              }
              dim {
                size: 9
              }
            }
          }
        }
      }
      attr {
        key: "keep_dims"
        value {
          b: false
        }
      }
    }
    node {
      name: "fm/dropout/keep_prob"
      op: "Const"
      attr {
        key: "_output_shapes"
        value {
          list {
            shape {
            }
          }
        }
      }
      attr {
        key: "dtype"
        value {
          type: DT_FLOAT
        }
      }
      attr {
        key: "value"
        value {
          tensor {
            dtype: DT_FLOAT
            tensor_shape {
            }
            float_val: 1.0
          }
        }
      }
    }
    node {
      name: "fm/Mul_1"
      op: "Mul"
      input: "fm/feature_embeddings/read"
      input: "fm/Reshape"
      attr {
        key: "T"
        value {
          type: DT_FLOAT
        }
      }
      attr {
        key: "_output_shapes"
        value {
          list {
            shape {
              dim {
                size: -1
              }
              dim {
                size: 9
              }
              dim {
                size: 10
              }
            }
          }
        }
      }
    }
    node {
      name: "fm/Sum_1/reduction_indices"
      op: "Const"
      attr {
        key: "_output_shapes"
        value {
          list {
            shape {
            }
          }
        }
      }
      attr {
        key: "dtype"
        value {
          type: DT_INT32
        }
      }
      attr {
        key: "value"
        value {
          tensor {
            dtype: DT_INT32
            tensor_shape {
            }
            int_val: 1
          }
        }
      }
    }
    node {
      name: "fm/Sum_1"
      op: "Sum"
      input: "fm/Mul_1"
      input: "fm/Sum_1/reduction_indices"
      attr {
        key: "T"
        value {
          type: DT_FLOAT
        }
      }
      attr {
        key: "Tidx"
        value {
          type: DT_INT32
        }
      }
      attr {
        key: "_output_shapes"
        value {
          list {
            shape {
              dim {
                size: -1
              }
              dim {
                size: 10
              }
            }
          }
        }
      }
      attr {
        key: "keep_dims"
        value {
          b: false
        }
      }
    }
    node {
      name: "fm/Square"
      op: "Square"
      input: "fm/Sum_1"
      attr {
        key: "T"
        value {
          type: DT_FLOAT
        }
      }
      attr {
        key: "_output_shapes"
        value {
          list {
            shape {
              dim {
                size: -1
              }
              dim {
                size: 10
              }
            }
          }
        }
      }
    }
    node {
      name: "fm/Square_1"
      op: "Square"
      input: "fm/Mul_1"
      attr {
        key: "T"
        value {
          type: DT_FLOAT
        }
      }
      attr {
        key: "_output_shapes"
        value {
          list {
            shape {
              dim {
                size: -1
              }
              dim {
                size: 9
              }
              dim {
                size: 10
              }
            }
          }
        }
      }
    }
    node {
      name: "fm/Sum_2/reduction_indices"
      op: "Const"
      attr {
        key: "_output_shapes"
        value {
          list {
            shape {
            }
          }
        }
      }
      attr {
        key: "dtype"
        value {
          type: DT_INT32
        }
      }
      attr {
        key: "value"
        value {
          tensor {
            dtype: DT_INT32
            tensor_shape {
            }
            int_val: 1
          }
        }
      }
    }
    node {
      name: "fm/Sum_2"
      op: "Sum"
      input: "fm/Square_1"
      input: "fm/Sum_2/reduction_indices"
      attr {
        key: "T"
        value {
          type: DT_FLOAT
        }
      }
      attr {
        key: "Tidx"
        value {
          type: DT_INT32
        }
      }
      attr {
        key: "_output_shapes"
        value {
          list {
            shape {
              dim {
                size: -1
              }
              dim {
                size: 10
              }
            }
          }
        }
      }
      attr {
        key: "keep_dims"
        value {
          b: false
        }
      }
    }
    node {
      name: "fm/Sub"
      op: "Sub"
      input: "fm/Square"
      input: "fm/Sum_2"
      attr {
        key: "T"
        value {
          type: DT_FLOAT
        }
      }
      attr {
        key: "_output_shapes"
        value {
          list {
            shape {
              dim {
                size: -1
              }
              dim {
                size: 10
              }
            }
          }
        }
      }
    }
    node {
      name: "fm/mul/x"
      op: "Const"
      attr {
        key: "_output_shapes"
        value {
          list {
            shape {
            }
          }
        }
      }
      attr {
        key: "dtype"
        value {
          type: DT_FLOAT
        }
      }
      attr {
        key: "value"
        value {
          tensor {
            dtype: DT_FLOAT
            tensor_shape {
            }
            float_val: 0.5
          }
        }
      }
    }
    node {
      name: "fm/mul"
      op: "Mul"
      input: "fm/mul/x"
      input: "fm/Sub"
      attr {
        key: "T"
        value {
          type: DT_FLOAT
        }
      }
      attr {
        key: "_output_shapes"
        value {
          list {
            shape {
              dim {
                size: -1
              }
              dim {
                size: 10
              }
            }
          }
        }
      }
    }
    node {
      name: "fm/dropout_1/keep_prob"
      op: "Const"
      attr {
        key: "_output_shapes"
        value {
          list {
            shape {
            }
          }
        }
      }
      attr {
        key: "dtype"
        value {
          type: DT_FLOAT
        }
      }
      attr {
        key: "value"
        value {
          tensor {
            dtype: DT_FLOAT
            tensor_shape {
            }
            float_val: 1.0
          }
        }
      }
    }
    node {
      name: "deep/Reshape/shape"
      op: "Const"
      attr {
        key: "_output_shapes"
        value {
          list {
            shape {
              dim {
                size: 2
              }
            }
          }
        }
      }
      attr {
        key: "dtype"
        value {
          type: DT_INT32
        }
      }
      attr {
        key: "value"
        value {
          tensor {
            dtype: DT_INT32
            tensor_shape {
              dim {
                size: 2
              }
            }
            tensor_content: "\377\377\377\377Z\000\000\000"
          }
        }
      }
    }
    node {
      name: "deep/Reshape"
      op: "Reshape"
      input: "fm/Mul_1"
      input: "deep/Reshape/shape"
      attr {
        key: "T"
        value {
          type: DT_FLOAT
        }
      }
      attr {
        key: "Tshape"
        value {
          type: DT_INT32
        }
      }
      attr {
        key: "_output_shapes"
        value {
          list {
            shape {
              dim {
                size: -1
              }
              dim {
                size: 90
              }
            }
          }
        }
      }
    }
    node {
      name: "deep/dropout/keep_prob"
      op: "Const"
      attr {
        key: "_output_shapes"
        value {
          list {
            shape {
            }
          }
        }
      }
      attr {
        key: "dtype"
        value {
          type: DT_FLOAT
        }
      }
      attr {
        key: "value"
        value {
          tensor {
            dtype: DT_FLOAT
            tensor_shape {
            }
            float_val: 0.5
          }
        }
      }
    }
    node {
      name: "deep/dropout/Shape"
      op: "Shape"
      input: "deep/Reshape"
      attr {
        key: "T"
        value {
          type: DT_FLOAT
        }
      }
      attr {
        key: "_output_shapes"
        value {
          list {
            shape {
              dim {
                size: 2
              }
            }
          }
        }
      }
      attr {
        key: "out_type"
        value {
          type: DT_INT32
        }
      }
    }
    node {
      name: "deep/dropout/random_uniform/min"
      op: "Const"
      attr {
        key: "_output_shapes"
        value {
          list {
            shape {
            }
          }
        }
      }
      attr {
        key: "dtype"
        value {
          type: DT_FLOAT
        }
      }
      attr {
        key: "value"
        value {
          tensor {
            dtype: DT_FLOAT
            tensor_shape {
            }
            float_val: 0.0
          }
        }
      }
    }
    node {
      name: "deep/dropout/random_uniform/max"
      op: "Const"
      attr {
        key: "_output_shapes"
        value {
          list {
            shape {
            }
          }
        }
      }
      attr {
        key: "dtype"
        value {
          type: DT_FLOAT
        }
      }
      attr {
        key: "value"
        value {
          tensor {
            dtype: DT_FLOAT
            tensor_shape {
            }
            float_val: 1.0
          }
        }
      }
    }
    node {
      name: "deep/dropout/random_uniform/RandomUniform"
      op: "RandomUniform"
      input: "deep/dropout/Shape"
      attr {
        key: "T"
        value {
          type: DT_INT32
        }
      }
      attr {
        key: "_output_shapes"
        value {
          list {
            shape {
              dim {
                size: -1
              }
              dim {
                size: 90
              }
            }
          }
        }
      }
      attr {
        key: "dtype"
        value {
          type: DT_FLOAT
        }
      }
      attr {
        key: "seed"
        value {
          i: 1548318758
        }
      }
      attr {
        key: "seed2"
        value {
          i: 44
        }
      }
    }
    node {
      name: "deep/dropout/random_uniform/sub"
      op: "Sub"
      input: "deep/dropout/random_uniform/max"
      input: "deep/dropout/random_uniform/min"
      attr {
        key: "T"
        value {
          type: DT_FLOAT
        }
      }
      attr {
        key: "_output_shapes"
        value {
          list {
            shape {
            }
          }
        }
      }
    }
    node {
      name: "deep/dropout/random_uniform/mul"
      op: "Mul"
      input: "deep/dropout/random_uniform/RandomUniform"
      input: "deep/dropout/random_uniform/sub"
      attr {
        key: "T"
        value {
          type: DT_FLOAT
        }
      }
      attr {
        key: "_output_shapes"
        value {
          list {
            shape {
              dim {
                size: -1
              }
              dim {
                size: 90
              }
            }
          }
        }
      }
    }
    node {
      name: "deep/dropout/random_uniform"
      op: "Add"
      input: "deep/dropout/random_uniform/mul"
      input: "deep/dropout/random_uniform/min"
      attr {
        key: "T"
        value {
          type: DT_FLOAT
        }
      }
      attr {
        key: "_output_shapes"
        value {
          list {
            shape {
              dim {
                size: -1
              }
              dim {
                size: 90
              }
            }
          }
        }
      }
    }
    node {
      name: "deep/dropout/add"
      op: "Add"
      input: "deep/dropout/keep_prob"
      input: "deep/dropout/random_uniform"
      attr {
        key: "T"
        value {
          type: DT_FLOAT
        }
      }
      attr {
        key: "_output_shapes"
        value {
          list {
            shape {
              dim {
                size: -1
              }
              dim {
                size: 90
              }
            }
          }
        }
      }
    }
    node {
      name: "deep/dropout/Floor"
      op: "Floor"
      input: "deep/dropout/add"
      attr {
        key: "T"
        value {
          type: DT_FLOAT
        }
      }
      attr {
        key: "_output_shapes"
        value {
          list {
            shape {
              dim {
                size: -1
              }
              dim {
                size: 90
              }
            }
          }
        }
      }
    }
    node {
      name: "deep/dropout/div"
      op: "RealDiv"
      input: "deep/Reshape"
      input: "deep/dropout/keep_prob"
      attr {
        key: "T"
        value {
          type: DT_FLOAT
        }
      }
      attr {
        key: "_output_shapes"
        value {
          list {
            shape {
              dim {
                size: -1
              }
              dim {
                size: 90
              }
            }
          }
        }
      }
    }
    node {
      name: "deep/dropout/mul"
      op: "Mul"
      input: "deep/dropout/div"
      input: "deep/dropout/Floor"
      attr {
        key: "T"
        value {
          type: DT_FLOAT
        }
      }
      attr {
        key: "_output_shapes"
        value {
          list {
            shape {
              dim {
                size: -1
              }
              dim {
                size: 90
              }
            }
          }
        }
      }
    }
    node {
      name: "deep/weights_layer0/initial_value"
      op: "Const"
      attr {
        key: "_output_shapes"
        value {
          list {
            shape {
              dim {
                size: 90
              }
              dim {
                size: 64
              }
            }
          }
        }
      }
      attr {
        key: "dtype"
        value {
          type: DT_FLOAT
        }
      }
      attr {
        key: "value"
        value {
          tensor {
            dtype: DT_FLOAT
            tensor_shape {
              dim {
                size: 90
              }
              dim {
                size: 64
              }
            }
            tensor_content: "…"
          }
        }
      }
    }
    node {
      name: "deep/weights_layer0"
      op: "VariableV2"
      attr {
        key: "_output_shapes"
        value {
          list {
            shape {
              dim {
                size: 90
              }
              dim {
                size: 64
              }
            }
          }
        }
      }
      attr {
        key: "container"
        value {
          s: ""
        }
      }
      attr {
        key: "dtype"
        value {
          type: DT_FLOAT
        }
      }
      attr {
        key: "shape"
        value {
          shape {
            dim {
              size: 90
            }
            dim {
              size: 64
            }
          }
        }
      }
      attr {
        key: "shared_name"
        value {
          s: ""
        }
      }
    }
    node {
      name: "deep/weights_layer0/Assign"
      op: "Assign"
      input: "deep/weights_layer0"
      input: "deep/weights_layer0/initial_value"
      attr {
        key: "T"
        value {
          type: DT_FLOAT
        }
      }
      attr {
        key: "_class"
        value {
          list {
            s: "loc:@deep/weights_layer0"
          }
        }
      }
      attr {
        key: "_output_shapes"
        value {
          list {
            shape {
              dim {
                size: 90
              }
              dim {
                size: 64
              }
            }
          }
        }
      }
      attr {
        key: "use_locking"
        value {
          b: true
        }
      }
      attr {
        key: "validate_shape"
        value {
          b: true
        }
      }
    }
    node {
      name: "deep/weights_layer0/read"
      op: "Identity"
      input: "deep/weights_layer0"
      attr {
        key: "T"
        value {
          type: DT_FLOAT
        }
      }
      attr {
        key: "_class"
        value {
          list {
            s: "loc:@deep/weights_layer0"
          }
        }
      }
      attr {
        key: "_output_shapes"
        value {
          list {
            shape {
              dim {
                size: 90
              }
              dim {
                size: 64
              }
            }
          }
        }
      }
    }
    node {
      name: "deep/weights_bias0/initial_value"
      op: "Const"
      attr {
        key: "_output_shapes"
        value {
          list {
            shape {
              dim {
                size: 1
              }
              dim {
                size: 64
              }
            }
          }
        }
      }
      attr {
        key: "dtype"
        value {
          type: DT_FLOAT
        }
      }
      attr {
        key: "value"
        value {
          tensor {
            dtype: DT_FLOAT
            tensor_shape {
              dim {
                size: 1
              }
              dim {
                size: 64
              }
            }
            tensor_content: "…"
          }
        }
      }
    }
    node {
      name: "deep/weights_bias0"
      op: "VariableV2"
      attr {
        key: "_output_shapes"
        value {
          list {
            shape {
              dim {
                size: 1
              }
              dim {
                size: 64
              }
            }
          }
        }
      }
      attr {
        key: "container"
        value {
          s: ""
        }
      }
      attr {
        key: "dtype"
        value {
          type: DT_FLOAT
        }
      }
      attr {
        key: "shape"
        value {
          shape {
            dim {
              size: 1
            }
            dim {
              size: 64
            }
          }
        }
      }
      attr {
        key: "shared_name"
        value {
          s: ""
        }
      }
    }
    node {
      name: "deep/weights_bias0/Assign"
      op: "Assign"
      input: "deep/weights_bias0"
      input: "deep/weights_bias0/initial_value"
      attr {
        key: "T"
        value {
          type: DT_FLOAT
        }
      }
      attr {
        key: "_class"
        value {
          list {
            s: "loc:@deep/weights_bias0"
          }
        }
      }
      attr {
        key: "_output_shapes"
        value {
          list {
            shape {
              dim {
                size: 1
              }
              dim {
                size: 64
              }
            }
          }
        }
      }
      attr {
        key: "use_locking"
        value {
          b: true
        }
      }
      attr {
        key: "validate_shape"
        value {
          b: true
        }
      }
    }
    node {
      name: "deep/weights_bias0/read"
      op: "Identity"
      input: "deep/weights_bias0"
      attr {
        key: "T"
        value {
          type: DT_FLOAT
        }
      }
      attr {
        key: "_class"
        value {
          list {
            s: "loc:@deep/weights_bias0"
          }
        }
      }
      attr {
        key: "_output_shapes"
        value {
          list {
            shape {
              dim {
                size: 1
              }
              dim {
                size: 64
              }
            }
          }
        }
      }
    }
    node {
      name: "deep/weights_layer1/initial_value"
      op: "Const"
      attr {
        key: "_output_shapes"
        value {
          list {
            shape {
              dim {
                size: 64
              }
              dim {
                size: 64
              }
            }
          }
        }
      }
      attr {
        key: "dtype"
        value {
          type: DT_FLOAT
        }
      }
      attr {
        key: "value"
        value {
          tensor {
            dtype: DT_FLOAT
            tensor_shape {
              dim {
                size: 64
              }
              dim {
                size: 64
              }
            }
            tensor_content: "…"
          }
        }
      }
    }
    node {
      name: "deep/weights_layer1"
      op: "VariableV2"
      attr {
        key: "_output_shapes"
        value {
          list {
            shape {
              dim {
                size: 64
              }
              dim {
                size: 64
              }
            }
          }
        }
      }
      attr {
        key: "container"
        value {
          s: ""
        }
      }
      attr {
        key: "dtype"
        value {
          type: DT_FLOAT
        }
      }
      attr {
        key: "shape"
        value {
          shape {
            dim {
              size: 64
            }
            dim {
              size: 64
            }
          }
        }
      }
      attr {
        key: "shared_name"
        value {
          s: ""
        }
      }
    }
    node {
      name: "deep/weights_layer1/Assign"
      op: "Assign"
      input: "deep/weights_layer1"
      input: "deep/weights_layer1/initial_value"
      attr {
        key: "T"
        value {
          type: DT_FLOAT
        }
      }
      attr {
        key: "_class"
        value {
          list {
            s: "loc:@deep/weights_layer1"
          }
        }
      }
      attr {
        key: "_output_shapes"
        value {
          list {
            shape {
              dim {
                size: 64
              }
              dim {
                size: 64
              }
            }
          }
        }
      }
      attr {
        key: "use_locking"
        value {
          b: true
        }
      }
      attr {
        key: "validate_shape"
        value {
          b: true
        }
      }
    }
    node {
      name: "deep/weights_layer1/read"
      op: "Identity"
      input: "deep/weights_layer1"
      attr {
        key: "T"
        value {
          type: DT_FLOAT
        }
      }
      attr {
        key: "_class"
        value {
          list {
            s: "loc:@deep/weights_layer1"
          }
        }
      }
      attr {
        key: "_output_shapes"
        value {
          list {
            shape {
              dim {
                size: 64
              }
              dim {
                size: 64
              }
            }
          }
        }
      }
    }
    node {
      name: "deep/weights_bias1/initial_value"
      op: "Const"
      attr {
        key: "_output_shapes"
        value {
          list {
            shape {
              dim {
                size: 1
              }
              dim {
                size: 64
              }
            }
          }
        }
      }
      attr {
        key: "dtype"
        value {
          type: DT_FLOAT
        }
      }
      attr {
        key: "value"
        value {
          tensor {
            dtype: DT_FLOAT
            tensor_shape {
              dim {
                size: 1
              }
              dim {
                size: 64
              }
            }
            tensor_content: "…"
          }
        }
      }
    }
    node {
      name: "deep/weights_bias1"
      op: "VariableV2"
      attr {
        key: "_output_shapes"
        value {
          list {
            shape {
              dim {
                size: 1
              }
              dim {
                size: 64
              }
            }
          }
        }
      }
      attr {
        key: "container"
        value {
          s: ""
        }
      }
      attr {
        key: "dtype"
        value {
          type: DT_FLOAT
        }
      }
      attr {
        key: "shape"
        value {
          shape {
            dim {
              size: 1
            }
            dim {
              size: 64
            }
          }
        }
      }
      attr {
        key: "shared_name"
        value {
          s: ""
        }
      }
    }
    node {
      name: "deep/weights_bias1/Assign"
      op: "Assign"
      input: "deep/weights_bias1"
      input: "deep/weights_bias1/initial_value"
      attr {
        key: "T"
        value {
          type: DT_FLOAT
        }
      }
      attr {
        key: "_class"
        value {
          list {
            s: "loc:@deep/weights_bias1"
          }
        }
      }
      attr {
        key: "_output_shapes"
        value {
          list {
            shape {
              dim {
                size: 1
              }
              dim {
                size: 64
              }
            }
          }
        }
      }
      attr {
        key: "use_locking"
        value {
          b: true
        }
      }
      attr {
        key: "validate_shape"
        value {
          b: true
        }
      }
    }
    node {
      name: "deep/weights_bias1/read"
      op: "Identity"
      input: "deep/weights_bias1"
      attr {
        key: "T"
        value {
          type: DT_FLOAT
        }
      }
      attr {
        key: "_class"
        value {
          list {
            s: "loc:@deep/weights_bias1"
          }
        }
      }
      attr {
        key: "_output_shapes"
        value {
          list {
            shape {
              dim {
                size: 1
              }
              dim {
                size: 64
              }
            }
          }
        }
      }
    }
    node {
      name: "deep/MatMul"
      op: "MatMul"
      input: "deep/dropout/mul"
      input: "deep/weights_layer0/read"
      attr {
        key: "T"
        value {
          type: DT_FLOAT
        }
      }
      attr {
        key: "_output_shapes"
        value {
          list {
            shape {
              dim {
                size: -1
              }
              dim {
                size: 64
              }
            }
          }
        }
      }
      attr {
        key: "transpose_a"
        value {
          b: false
        }
      }
      attr {
        key: "transpose_b"
        value {
          b: false
        }
      }
    }
    node {
      name: "deep/Add"
      op: "Add"
      input: "deep/MatMul"
      input: "deep/weights_bias0/read"
      attr {
        key: "T"
        value {
          type: DT_FLOAT
        }
      }
      attr {
        key: "_output_shapes"
        value {
          list {
            shape {
              dim {
                size: -1
              }
              dim {
                size: 64
              }
            }
          }
        }
      }
    }
    node {
      name: "deep/Relu"
      op: "Relu"
      input: "deep/Add"
      attr {
        key: "T"
        value {
          type: DT_FLOAT
        }
      }
      attr {
        key: "_output_shapes"
        value {
          list {
            shape {
              dim {
                size: -1
              }
              dim {
                size: 64
              }
            }
          }
        }
      }
    }
    node {
      name: "deep/dropout_1/keep_prob"
      op: "Const"
      attr {
        key: "_output_shapes"
        value {
          list {
            shape {
            }
          }
        }
      }
      attr {
        key: "dtype"
        value {
          type: DT_FLOAT
        }
      }
      attr {
        key: "value"
        value {
          tensor {
            dtype: DT_FLOAT
            tensor_shape {
            }
            float_val: 0.5
          }
        }
      }
    }
    node {
      name: "deep/dropout_1/Shape"
      op: "Shape"
      input: "deep/Relu"
      attr {
        key: "T"
        value {
          type: DT_FLOAT
        }
      }
      attr {
        key: "_output_shapes"
        value {
          list {
            shape {
              dim {
                size: 2
              }
            }
          }
        }
      }
      attr {
        key: "out_type"
        value {
          type: DT_INT32
        }
      }
    }
    node {
      name: "deep/dropout_1/random_uniform/min"
      op: "Const"
      attr {
        key: "_output_shapes"
        value {
          list {
            shape {
            }
          }
        }
      }
      attr {
        key: "dtype"
        value {
          type: DT_FLOAT
        }
      }
      attr {
        key: "value"
        value {
          tensor {
            dtype: DT_FLOAT
            tensor_shape {
            }
            float_val: 0.0
          }
        }
      }
    }
    node {
      name: "deep/dropout_1/random_uniform/max"
      op: "Const"
      attr {
        key: "_output_shapes"
        value {
          list {
            shape {
            }
          }
        }
      }
      attr {
        key: "dtype"
        value {
          type: DT_FLOAT
        }
      }
      attr {
        key: "value"
        value {
          tensor {
            dtype: DT_FLOAT
            tensor_shape {
            }
            float_val: 1.0
          }
        }
      }
    }
    node {
      name: "deep/dropout_1/random_uniform/RandomUniform"
      op: "RandomUniform"
      input: "deep/dropout_1/Shape"
      attr {
        key: "T"
        value {
          type: DT_INT32
        }
      }
      attr {
        key: "_output_shapes"
        value {
          list {
            shape {
              dim {
                size: -1
              }
              dim {
                size: 64
              }
            }
          }
        }
      }
      attr {
        key: "dtype"
        value {
          type: DT_FLOAT
        }
      }
      attr {
        key: "seed"
        value {
          i: 1548318758
        }
      }
      attr {
        key: "seed2"
        value {
          i: 75
        }
      }
    }
    node {
      name: "deep/dropout_1/random_uniform/sub"
      op: "Sub"
      input: "deep/dropout_1/random_uniform/max"
      input: "deep/dropout_1/random_uniform/min"
      attr {
        key: "T"
        value {
          type: DT_FLOAT
        }
      }
      attr {
        key: "_output_shapes"
        value {
          list {
            shape {
            }
          }
        }
      }
    }
    node {
      name: "deep/dropout_1/random_uniform/mul"
      op: "Mul"
      input: "deep/dropout_1/random_uniform/RandomUniform"
      input: "deep/dropout_1/random_uniform/sub"
      attr {
        key: "T"
        value {
          type: DT_FLOAT
        }
      }
      attr {
        key: "_output_shapes"
        value {
          list {
            shape {
              dim {
                size: -1
              }
              dim {
                size: 64
              }
            }
          }
        }
      }
    }
    node {
      name: "deep/dropout_1/random_uniform"
      op: "Add"
      input: "deep/dropout_1/random_uniform/mul"
      input: "deep/dropout_1/random_uniform/min"
      attr {
        key: "T"
        value {
          type: DT_FLOAT
        }
      }
      attr {
        key: "_output_shapes"
        value {
          list {
            shape {
              dim {
                size: -1
              }
              dim {
                size: 64
              }
            }
          }
        }
      }
    }
    node {
      name: "deep/dropout_1/add"
      op: "Add"
      input: "deep/dropout_1/keep_prob"
      input: "deep/dropout_1/random_uniform"
      attr {
        key: "T"
        value {
          type: DT_FLOAT
        }
      }
      attr {
        key: "_output_shapes"
        value {
          list {
            shape {
              dim {
                size: -1
              }
              dim {
                size: 64
              }
            }
          }
        }
      }
    }
    node {
      name: "deep/dropout_1/Floor"
      op: "Floor"
      input: "deep/dropout_1/add"
      attr {
        key: "T"
        value {
          type: DT_FLOAT
        }
      }
      attr {
        key: "_output_shapes"
        value {
          list {
            shape {
              dim {
                size: -1
              }
              dim {
                size: 64
              }
            }
          }
        }
      }
    }
    node {
      name: "deep/dropout_1/div"
      op: "RealDiv"
      input: "deep/Relu"
      input: "deep/dropout_1/keep_prob"
      attr {
        key: "T"
        value {
          type: DT_FLOAT
        }
      }
      attr {
        key: "_output_shapes"
        value {
          list {
            shape {
              dim {
                size: -1
              }
              dim {
                size: 64
              }
            }
          }
        }
      }
    }
    node {
      name: "deep/dropout_1/mul"
      op: "Mul"
      input: "deep/dropout_1/div"
      input: "deep/dropout_1/Floor"
      attr {
        key: "T"
        value {
          type: DT_FLOAT
        }
      }
      attr {
        key: "_output_shapes"
        value {
          list {
            shape {
              dim {
                size: -1
              }
              dim {
                size: 64
              }
            }
          }
        }
      }
    }
    node {
      name: "deep/MatMul_1"
      op: "MatMul"
      input: "deep/dropout_1/mul"
      input: "deep/weights_layer1/read"
      attr {
        key: "T"
        value {
          type: DT_FLOAT
        }
      }
      attr {
        key: "_output_shapes"
        value {
          list {
            shape {
              dim {
                size: -1
              }
              dim {
                size: 64
              }
            }
          }
        }
      }
      attr {
        key: "transpose_a"
        value {
          b: false
        }
      }
      attr {
        key: "transpose_b"
        value {
          b: false
        }
      }
    }
    node {
      name: "deep/Add_1"
      op: "Add"
      input: "deep/MatMul_1"
      input: "deep/weights_bias1/read"
      attr {
        key: "T"
        value {
          type: DT_FLOAT
        }
      }
      attr {
        key: "_output_shapes"
        value {
          list {
            shape {
              dim {
                size: -1
              }
              dim {
                size: 64
              }
            }
          }
        }
      }
    }
    node {
      name: "deep/Relu_1"
      op: "Relu"
      input: "deep/Add_1"
      attr {
        key: "T"
        value {
          type: DT_FLOAT
        }
      }
      attr {
        key: "_output_shapes"
        value {
          list {
            shape {
              dim {
                size: -1
              }
              dim {
                size: 64
              }
            }
          }
        }
      }
    }
    node {
      name: "deep/dropout_2/keep_prob"
      op: "Const"
      attr {
        key: "_output_shapes"
        value {
          list {
            shape {
            }
          }
        }
      }
      attr {
        key: "dtype"
        value {
          type: DT_FLOAT
        }
      }
      attr {
        key: "value"
        value {
          tensor {
            dtype: DT_FLOAT
            tensor_shape {
            }
            float_val: 0.5
          }
        }
      }
    }
    node {
      name: "deep/dropout_2/Shape"
      op: "Shape"
      input: "deep/Relu_1"
      attr {
        key: "T"
        value {
          type: DT_FLOAT
        }
      }
      attr {
        key: "_output_shapes"
        value {
          list {
            shape {
              dim {
                size: 2
              }
            }
          }
        }
      }
      attr {
        key: "out_type"
        value {
          type: DT_INT32
        }
      }
    }
    node {
      name: "deep/dropout_2/random_uniform/min"
      op: "Const"
      attr {
        key: "_output_shapes"
        value {
          list {
            shape {
            }
          }
        }
      }
      attr {
        key: "dtype"
        value {
          type: DT_FLOAT
        }
      }
      attr {
        key: "value"
        value {
          tensor {
            dtype: DT_FLOAT
            tensor_shape {
            }
            float_val: 0.0
          }
        }
      }
    }
    node {
      name: "deep/dropout_2/random_uniform/max"
      op: "Const"
      attr {
        key: "_output_shapes"
        value {
          list {
            shape {
            }
          }
        }
      }
      attr {
        key: "dtype"
        value {
          type: DT_FLOAT
        }
      }
      attr {
        key: "value"
        value {
          tensor {
            dtype: DT_FLOAT
            tensor_shape {
            }
            float_val: 1.0
          }
        }
      }
    }
    node {
      name: "deep/dropout_2/random_uniform/RandomUniform"
      op: "RandomUniform"
      input: "deep/dropout_2/Shape"
      attr {
        key: "T"
        value {
          type: DT_INT32
        }
      }
      attr {
        key: "_output_shapes"
        value {
          list {
            shape {
              dim {
                size: -1
              }
              dim {
                size: 64
              }
            }
          }
        }
      }
      attr {
        key: "dtype"
        value {
          type: DT_FLOAT
        }
      }
      attr {
        key: "seed"
        value {
          i: 1548318758
        }
      }
      attr {
        key: "seed2"
        value {
          i: 90
        }
      }
    }
    node {
      name: "deep/dropout_2/random_uniform/sub"
      op: "Sub"
      input: "deep/dropout_2/random_uniform/max"
      input: "deep/dropout_2/random_uniform/min"
      attr {
        key: "T"
        value {
          type: DT_FLOAT
        }
      }
      attr {
        key: "_output_shapes"
        value {
          list {
            shape {
            }
          }
        }
      }
    }
    node {
      name: "deep/dropout_2/random_uniform/mul"
      op: "Mul"
      input: "deep/dropout_2/random_uniform/RandomUniform"
      input: "deep/dropout_2/random_uniform/sub"
      attr {
        key: "T"
        value {
          type: DT_FLOAT
        }
      }
      attr {
        key: "_output_shapes"
        value {
          list {
            shape {
              dim {
                size: -1
              }
              dim {
                size: 64
              }
            }
          }
        }
      }
    }
    node {
      name: "deep/dropout_2/random_uniform"
      op: "Add"
      input: "deep/dropout_2/random_uniform/mul"
      input: "deep/dropout_2/random_uniform/min"
      attr {
        key: "T"
        value {
          type: DT_FLOAT
        }
      }
      attr {
        key: "_output_shapes"
        value {
          list {
            shape {
              dim {
                size: -1
              }
              dim {
                size: 64
              }
            }
          }
        }
      }
    }
    node {
      name: "deep/dropout_2/add"
      op: "Add"
      input: "deep/dropout_2/keep_prob"
      input: "deep/dropout_2/random_uniform"
      attr {
        key: "T"
        value {
          type: DT_FLOAT
        }
      }
      attr {
        key: "_output_shapes"
        value {
          list {
            shape {
              dim {
                size: -1
              }
              dim {
                size: 64
              }
            }
          }
        }
      }
    }
    node {
      name: "deep/dropout_2/Floor"
      op: "Floor"
      input: "deep/dropout_2/add"
      attr {
        key: "T"
        value {
          type: DT_FLOAT
        }
      }
      attr {
        key: "_output_shapes"
        value {
          list {
            shape {
              dim {
                size: -1
              }
              dim {
                size: 64
              }
            }
          }
        }
      }
    }
    node {
      name: "deep/dropout_2/div"
      op: "RealDiv"
      input: "deep/Relu_1"
      input: "deep/dropout_2/keep_prob"
      attr {
        key: "T"
        value {
          type: DT_FLOAT
        }
      }
      attr {
        key: "_output_shapes"
        value {
          list {
            shape {
              dim {
                size: -1
              }
              dim {
                size: 64
              }
            }
          }
        }
      }
    }
    node {
      name: "deep/dropout_2/mul"
      op: "Mul"
      input: "deep/dropout_2/div"
      input: "deep/dropout_2/Floor"
      attr {
        key: "T"
        value {
          type: DT_FLOAT
        }
      }
      attr {
        key: "_output_shapes"
        value {
          list {
            shape {
              dim {
                size: -1
              }
              dim {
                size: 64
              }
            }
          }
        }
      }
    }
    node {
      name: "deepfm/concat/axis"
      op: "Const"
      attr {
        key: "_output_shapes"
        value {
          list {
            shape {
            }
          }
        }
      }
      attr {
        key: "dtype"
        value {
          type: DT_INT32
        }
      }
      attr {
        key: "value"
        value {
          tensor {
            dtype: DT_INT32
            tensor_shape {
            }
            int_val: 1
          }
        }
      }
    }
    node {
      name: "deepfm/concat"
      op: "ConcatV2"
      input: "fm/Sum"
      input: "fm/mul"
      input: "deep/dropout_2/mul"
      input: "deepfm/concat/axis"
      attr {
        key: "N"
        value {
          i: 3
        }
      }
      attr {
        key: "T"
        value {
          type: DT_FLOAT
        }
      }
      attr {
        key: "Tidx"
        value {
          type: DT_INT32
        }
      }
      attr {
        key: "_output_shapes"
        value {
          list {
            shape {
              dim {
                size: -1
              }
              dim {
                size: 83
              }
            }
          }
        }
      }
    }
    node {
      name: "deepfm/concat_1/axis"
      op: "Const"
      attr {
        key: "_output_shapes"
        value {
          list {
            shape {
            }
          }
        }
      }
      attr {
        key: "dtype"
        value {
          type: DT_INT32
        }
      }
      attr {
        key: "value"
        value {
          tensor {
            dtype: DT_INT32
            tensor_shape {
            }
            int_val: 1
          }
        }
      }
    }
    node {
      name: "deepfm/concat_1"
      op: "ConcatV2"
      input: "fm/Sum"
      input: "fm/mul"
      input: "deep/dropout_2/mul"
      input: "deepfm/concat_1/axis"
      attr {
        key: "N"
        value {
          i: 3
        }
      }
      attr {
        key: "T"
        value {
          type: DT_FLOAT
        }
      }
      attr {
        key: "Tidx"
        value {
          type: DT_INT32
        }
      }
      attr {
        key: "_output_shapes"
        value {
          list {
            shape {
              dim {
                size: -1
              }
              dim {
                size: 83
              }
            }
          }
        }
      }
    }
    node {
      name: "deepfm/concat_projection0/initial_value"
      op: "Const"
      attr {
        key: "_output_shapes"
        value {
          list {
            shape {
              dim {
                size: 83
              }
              dim {
                size: 1
              }
            }
          }
        }
      }
      attr {
        key: "dtype"
        value {
          type: DT_FLOAT
        }
      }
      attr {
        key: "value"
        value {
          tensor {
            dtype: DT_FLOAT
            tensor_shape {
              dim {
                size: 83
              }
              dim {
                size: 1
              }
            }
            tensor_content: "…"
          }
        }
      }
    }
    node {
      name: "deepfm/concat_projection0"
      op: "VariableV2"
      attr {
        key: "_output_shapes"
        value {
          list {
            shape {
              dim {
                size: 83
              }
              dim {
                size: 1
              }
            }
          }
        }
      }
      attr {
        key: "container"
        value {
          s: ""
        }
      }
      attr {
        key: "dtype"
        value {
          type: DT_FLOAT
        }
      }
      attr {
        key: "shape"
        value {
          shape {
            dim {
              size: 83
            }
            dim {
              size: 1
            }
          }
        }
      }
      attr {
        key: "shared_name"
        value {
          s: ""
        }
      }
    }
    node {
      name: "deepfm/concat_projection0/Assign"
      op: "Assign"
      input: "deepfm/concat_projection0"
      input: "deepfm/concat_projection0/initial_value"
      attr {
        key: "T"
        value {
          type: DT_FLOAT
        }
      }
      attr {
        key: "_class"
        value {
          list {
            s: "loc:@deepfm/concat_projection0"
          }
        }
      }
      attr {
        key: "_output_shapes"
        value {
          list {
            shape {
              dim {
                size: 83
              }
              dim {
                size: 1
              }
            }
          }
        }
      }
      attr {
        key: "use_locking"
        value {
          b: true
        }
      }
      attr {
        key: "validate_shape"
        value {
          b: true
        }
      }
    }
    node {
      name: "deepfm/concat_projection0/read"
      op: "Identity"
      input: "deepfm/concat_projection0"
      attr {
        key: "T"
        value {
          type: DT_FLOAT
        }
      }
      attr {
        key: "_class"
        value {
          list {
            s: "loc:@deepfm/concat_projection0"
          }
        }
      }
      attr {
        key: "_output_shapes"
        value {
          list {
            shape {
              dim {
                size: 83
              }
              dim {
                size: 1
              }
            }
          }
        }
      }
    }
    node {
      name: "deepfm/Const"
      op: "Const"
      attr {
        key: "_output_shapes"
        value {
          list {
            shape {
            }
          }
        }
      }
      attr {
        key: "dtype"
        value {
          type: DT_FLOAT
        }
      }
      attr {
        key: "value"
        value {
          tensor {
            dtype: DT_FLOAT
            tensor_shape {
            }
            float_val: 0.009999999776482582
          }
        }
      }
    }
    node {
      name: "deepfm/concat_bias0"
      op: "VariableV2"
      attr {
        key: "_output_shapes"
        value {
          list {
            shape {
            }
          }
        }
      }
      attr {
        key: "container"
        value {
          s: ""
        }
      }
      attr {
        key: "dtype"
        value {
          type: DT_FLOAT
        }
      }
      attr {
        key: "shape"
        value {
          shape {
          }
        }
      }
      attr {
        key: "shared_name"
        value {
          s: ""
        }
      }
    }
    node {
      name: "deepfm/concat_bias0/Assign"
      op: "Assign"
      input: "deepfm/concat_bias0"
      input: "deepfm/Const"
      attr {
        key: "T"
        value {
          type: DT_FLOAT
        }
      }
      attr {
        key: "_class"
        value {
          list {
            s: "loc:@deepfm/concat_bias0"
          }
        }
      }
      attr {
        key: "_output_shapes"
        value {
          list {
            shape {
            }
          }
        }
      }
      attr {
        key: "use_locking"
        value {
          b: true
        }
      }
      attr {
        key: "validate_shape"
        value {
          b: true
        }
      }
    }
    node {
      name: "deepfm/concat_bias0/read"
      op: "Identity"
      input: "deepfm/concat_bias0"
      attr {
        key: "T"
        value {
          type: DT_FLOAT
        }
      }
      attr {
        key: "_class"
        value {
          list {
            s: "loc:@deepfm/concat_bias0"
          }
        }
      }
      attr {
        key: "_output_shapes"
        value {
          list {
            shape {
            }
          }
        }
      }
    }
    node {
      name: "deepfm/MatMul"
      op: "MatMul"
      input: "deepfm/concat_1"
      input: "deepfm/concat_projection0/read"
      attr {
        key: "T"
        value {
          type: DT_FLOAT
        }
      }
      attr {
        key: "_output_shapes"
        value {
          list {
            shape {
              dim {
                size: -1
              }
              dim {
                size: 1
              }
            }
          }
        }
      }
      attr {
        key: "transpose_a"
        value {
          b: false
        }
      }
      attr {
        key: "transpose_b"
        value {
          b: false
        }
      }
    }
    node {
      name: "deepfm/out"
      op: "Add"
      input: "deepfm/MatMul"
      input: "deepfm/concat_bias0/read"
      attr {
        key: "T"
        value {
          type: DT_FLOAT
        }
      }
      attr {
        key: "_output_shapes"
        value {
          list {
            shape {
              dim {
                size: -1
              }
              dim {
                size: 1
              }
            }
          }
        }
      }
    }
    node {
      name: "score"
      op: "Sigmoid"
      input: "deepfm/out"
      attr {
        key: "T"
        value {
          type: DT_FLOAT
        }
      }
      attr {
        key: "_output_shapes"
        value {
          list {
            shape {
              dim {
                size: -1
              }
              dim {
                size: 1
              }
            }
          }
        }
      }
    }
    node {
      name: "deep_fm/score/tag"
      op: "Const"
      attr {
        key: "_output_shapes"
        value {
          list {
            shape {
            }
          }
        }
      }
      attr {
        key: "dtype"
        value {
          type: DT_STRING
        }
      }
      attr {
        key: "value"
        value {
          tensor {
            dtype: DT_STRING
            tensor_shape {
            }
            string_val: "deep_fm/score"
          }
        }
      }
    }
    node {
      name: "deep_fm/score"
      op: "HistogramSummary"
      input: "deep_fm/score/tag"
      input: "score"
      attr {
        key: "T"
        value {
          type: DT_FLOAT
        }
      }
      attr {
        key: "_output_shapes"
        value {
          list {
            shape {
            }
          }
        }
      }
    }
    node {
      name: "DeepFm_Estimate/sub"
      op: "Sub"
      input: "Placeholder"
      input: "score"
      attr {
        key: "T"
        value {
          type: DT_FLOAT
        }
      }
      attr {
        key: "_output_shapes"
        value {
          list {
            shape {
              dim {
                size: -1
              }
              dim {
                size: 1
              }
            }
          }
        }
      }
    }
    node {
      name: "DeepFm_Estimate/Square"
      op: "Square"
      input: "DeepFm_Estimate/sub"
      attr {
        key: "T"
        value {
          type: DT_FLOAT
        }
      }
      attr {
        key: "_output_shapes"
        value {
          list {
            shape {
              dim {
                size: -1
              }
              dim {
                size: 1
              }
            }
          }
        }
      }
    }
    node {
      name: "DeepFm_Estimate/Sum/reduction_indices"
      op: "Const"
      attr {
        key: "_output_shapes"
        value {
          list {
            shape {
              dim {
                size: 1
              }
            }
          }
        }
      }
      attr {
        key: "dtype"
        value {
          type: DT_INT32
        }
      }
      attr {
        key: "value"
        value {
          tensor {
            dtype: DT_INT32
            tensor_shape {
              dim {
                size: 1
              }
            }
            int_val: 1
          }
        }
      }
    }
    node {
      name: "DeepFm_Estimate/Sum"
      op: "Sum"
      input: "DeepFm_Estimate/Square"
      input: "DeepFm_Estimate/Sum/reduction_indices"
      attr {
        key: "T"
        value {
          type: DT_FLOAT
        }
      }
      attr {
        key: "Tidx"
        value {
          type: DT_INT32
        }
      }
      attr {
        key: "_output_shapes"
        value {
          list {
            shape {
              dim {
                size: -1
              }
            }
          }
        }
      }
      attr {
        key: "keep_dims"
        value {
          b: false
        }
      }
    }
    node {
      name: "DeepFm_Estimate/Const"
      op: "Const"
      attr {
        key: "_output_shapes"
        value {
          list {
            shape {
              dim {
                size: 1
              }
            }
          }
        }
      }
      attr {
        key: "dtype"
        value {
          type: DT_INT32
        }
      }
      attr {
        key: "value"
        value {
          tensor {
            dtype: DT_INT32
            tensor_shape {
              dim {
                size: 1
              }
            }
            int_val: 0
          }
        }
      }
    }
    node {
      name: "DeepFm_Estimate/Mean"
      op: "Mean"
      input: "DeepFm_Estimate/Sum"
      input: "DeepFm_Estimate/Const"
      attr {
        key: "T"
        value {
          type: DT_FLOAT
        }
      }
      attr {
        key: "Tidx"
        value {
          type: DT_INT32
        }
      }
      attr {
        key: "_output_shapes"
        value {
          list {
            shape {
            }
          }
        }
      }
      attr {
        key: "keep_dims"
        value {
          b: false
        }
      }
    }
    node {
      name: "DeepFm_Estimate/loss/tags"
      op: "Const"
      attr {
        key: "_output_shapes"
        value {
          list {
            shape {
            }
          }
        }
      }
      attr {
        key: "dtype"
        value {
          type: DT_STRING
        }
      }
      attr {
        key: "value"
        value {
          tensor {
            dtype: DT_STRING
            tensor_shape {
            }
            string_val: "DeepFm_Estimate/loss"
          }
        }
      }
    }
    node {
      name: "DeepFm_Estimate/loss"
      op: "ScalarSummary"
      input: "DeepFm_Estimate/loss/tags"
      input: "DeepFm_Estimate/Mean"
      attr {
        key: "T"
        value {
          type: DT_FLOAT
        }
      }
      attr {
        key: "_output_shapes"
        value {
          list {
            shape {
            }
          }
        }
      }
    }
    node {
      name: "DeepFm_Estimate/auc/Cast"
      op: "Cast"
      input: "Placeholder"
      attr {
        key: "DstT"
        value {
          type: DT_BOOL
        }
      }
      attr {
        key: "SrcT"
        value {
          type: DT_FLOAT
        }
      }
      attr {
        key: "_output_shapes"
        value {
          list {
            shape {
              dim {
                size: -1
              }
              dim {
                size: 1
              }
            }
          }
        }
      }
    }
    node {
      name: "DeepFm_Estimate/auc/Reshape/shape"
      op: "Const"
      attr {
        key: "_output_shapes"
        value {
          list {
            shape {
              dim {
                size: 2
              }
            }
          }
        }
      }
      attr {
        key: "dtype"
        value {
          type: DT_INT32
        }
      }
      attr {
        key: "value"
        value {
          tensor {
            dtype: DT_INT32
            tensor_shape {
              dim {
                size: 2
              }
            }
            tensor_content: "\377\377\377\377\001\000\000\000"
          }
        }
      }
    }
    node {
      name: "DeepFm_Estimate/auc/Reshape"
      op: "Reshape"
      input: "score"
      input: "DeepFm_Estimate/auc/Reshape/shape"
      attr {
        key: "T"
        value {
          type: DT_FLOAT
        }
      }
      attr {
        key: "Tshape"
        value {
          type: DT_INT32
        }
      }
      attr {
        key: "_output_shapes"
        value {
          list {
            shape {
              dim {
                size: -1
              }
              dim {
                size: 1
              }
            }
          }
        }
      }
    }
    node {
      name: "DeepFm_Estimate/auc/Reshape_1/shape"
      op: "Const"
      attr {
        key: "_output_shapes"
        value {
          list {
            shape {
              dim {
                size: 2
              }
            }
          }
        }
      }
      attr {
        key: "dtype"
        value {
          type: DT_INT32
        }
      }
      attr {
        key: "value"
        value {
          tensor {
            dtype: DT_INT32
            tensor_shape {
              dim {
                size: 2
              }
            }
            tensor_content: "\001\000\000\000\377\377\377\377"
          }
        }
      }
    }
    node {
      name: "DeepFm_Estimate/auc/Reshape_1"
      op: "Reshape"
      input: "DeepFm_Estimate/auc/Cast"
      input: "DeepFm_Estimate/auc/Reshape_1/shape"
      attr {
        key: "T"
        value {
          type: DT_BOOL
        }
      }
      attr {
        key: "Tshape"
        value {
          type: DT_INT32
        }
      }
      attr {
        key: "_output_shapes"
        value {
          list {
            shape {
              dim {
                size: 1
              }
              dim {
                size: -1
              }
            }
          }
        }
      }
    }
    node {
      name: "DeepFm_Estimate/auc/Shape"
      op: "Shape"
      input: "DeepFm_Estimate/auc/Reshape"
      attr {
        key: "T"
        value {
          type: DT_FLOAT
        }
      }
      attr {
        key: "_output_shapes"
        value {
          list {
            shape {
              dim {
                size: 2
              }
            }
          }
        }
      }
      attr {
        key: "out_type"
        value {
          type: DT_INT32
        }
      }
    }
    node {
      name: "DeepFm_Estimate/auc/strided_slice/stack"
      op: "Const"
      attr {
        key: "_output_shapes"
        value {
          list {
            shape {
              dim {
                size: 1
              }
            }
          }
        }
      }
      attr {
        key: "dtype"
        value {
          type: DT_INT32
        }
      }
      attr {
        key: "value"
        value {
          tensor {
            dtype: DT_INT32
            tensor_shape {
              dim {
                size: 1
              }
            }
            int_val: 0
          }
        }
      }
    }
    node {
      name: "DeepFm_Estimate/auc/strided_slice/stack_1"
      op: "Const"
      attr {
        key: "_output_shapes"
        value {
          list {
            shape {
              dim {
                size: 1
              }
            }
          }
        }
      }
      attr {
        key: "dtype"
        value {
          type: DT_INT32
        }
      }
      attr {
        key: "value"
        value {
          tensor {
            dtype: DT_INT32
            tensor_shape {
              dim {
                size: 1
              }
            }
            int_val: 1
          }
        }
      }
    }
    node {
      name: "DeepFm_Estimate/auc/strided_slice/stack_2"
      op: "Const"
      attr {
        key: "_output_shapes"
        value {
          list {
            shape {
              dim {
                size: 1
              }
            }
          }
        }
      }
      attr {
        key: "dtype"
        value {
          type: DT_INT32
        }
      }
      attr {
        key: "value"
        value {
          tensor {
            dtype: DT_INT32
            tensor_shape {
              dim {
                size: 1
              }
            }
            int_val: 1
          }
        }
      }
    }
    node {
      name: "DeepFm_Estimate/auc/strided_slice"
      op: "StridedSlice"
      input: "DeepFm_Estimate/auc/Shape"
      input: "DeepFm_Estimate/auc/strided_slice/stack"
      input: "DeepFm_Estimate/auc/strided_slice/stack_1"
      input: "DeepFm_Estimate/auc/strided_slice/stack_2"
      attr {
        key: "Index"
        value {
          type: DT_INT32
        }
      }
      attr {
        key: "T"
        value {
          type: DT_INT32
        }
      }
      attr {
        key: "_output_shapes"
        value {
          list {
            shape {
            }
          }
        }
      }
      attr {
        key: "begin_mask"
        value {
          i: 0
        }
      }
      attr {
        key: "ellipsis_mask"
        value {
          i: 0
        }
      }
      attr {
        key: "end_mask"
        value {
          i: 0
        }
      }
      attr {
        key: "new_axis_mask"
        value {
          i: 0
        }
      }
      attr {
        key: "shrink_axis_mask"
        value {
          i: 1
        }
      }
    }
    node {
      name: "DeepFm_Estimate/auc/Const"
      op: "Const"
      attr {
        key: "_output_shapes"
        value {
          list {
            shape {
              dim {
                size: 200
              }
            }
          }
        }
      }
      attr {
        key: "dtype"
        value {
          type: DT_FLOAT
        }
      }
      attr {
        key: "value"
        value {
          tensor {
            dtype: DT_FLOAT
            tensor_shape {
              dim {
                size: 200
              }
            }
            tensor_content: "…"
          }
        }
      }
    }
    node {
      name: "DeepFm_Estimate/auc/ExpandDims/dim"
      op: "Const"
      attr {
        key: "_output_shapes"
        value {
          list {
            shape {
              dim {
                size: 1
              }
            }
          }
        }
      }
      attr {
        key: "dtype"
        value {
          type: DT_INT32
        }
      }
      attr {
        key: "value"
        value {
          tensor {
            dtype: DT_INT32
            tensor_shape {
              dim {
                size: 1
              }
            }
            int_val: 1
          }
        }
      }
    }
    node {
      name: "DeepFm_Estimate/auc/ExpandDims"
      op: "ExpandDims"
      input: "DeepFm_Estimate/auc/Const"
      input: "DeepFm_Estimate/auc/ExpandDims/dim"
      attr {
        key: "T"
        value {
          type: DT_FLOAT
        }
      }
      attr {
        key: "Tdim"
        value {
          type: DT_INT32
        }
      }
      attr {
        key: "_output_shapes"
        value {
          list {
            shape {
              dim {
                size: 200
              }
              dim {
                size: 1
              }
            }
          }
        }
      }
    }
    node {
      name: "DeepFm_Estimate/auc/stack/0"
      op: "Const"
      attr {
        key: "_output_shapes"
        value {
          list {
            shape {
            }
          }
        }
      }
      attr {
        key: "dtype"
        value {
          type: DT_INT32
        }
      }
      attr {
        key: "value"
        value {
          tensor {
            dtype: DT_INT32
            tensor_shape {
            }
            int_val: 1
          }
        }
      }
    }
    node {
      name: "DeepFm_Estimate/auc/stack"
      op: "Pack"
      input: "DeepFm_Estimate/auc/stack/0"
      input: "DeepFm_Estimate/auc/strided_slice"
      attr {
        key: "N"
        value {
          i: 2
        }
      }
      attr {
        key: "T"
        value {
          type: DT_INT32
        }
      }
      attr {
        key: "_output_shapes"
        value {
          list {
            shape {
              dim {
                size: 2
              }
            }
          }
        }
      }
      attr {
        key: "axis"
        value {
          i: 0
        }
      }
    }
    node {
      name: "DeepFm_Estimate/auc/Tile"
      op: "Tile"
      input: "DeepFm_Estimate/auc/ExpandDims"
      input: "DeepFm_Estimate/auc/stack"
      attr {
        key: "T"
        value {
          type: DT_FLOAT
        }
      }
      attr {
        key: "Tmultiples"
        value {
          type: DT_INT32
        }
      }
      attr {
        key: "_output_shapes"
        value {
          list {
            shape {
              dim {
                size: 200
              }
              dim {
                size: -1
              }
            }
          }
        }
      }
    }
    node {
      name: "DeepFm_Estimate/auc/transpose/Rank"
      op: "Rank"
      input: "DeepFm_Estimate/auc/Reshape"
      attr {
        key: "T"
        value {
          type: DT_FLOAT
        }
      }
      attr {
        key: "_output_shapes"
        value {
          list {
            shape {
            }
          }
        }
      }
    }
    node {
      name: "DeepFm_Estimate/auc/transpose/sub/y"
      op: "Const"
      attr {
        key: "_output_shapes"
        value {
          list {
            shape {
            }
          }
        }
      }
      attr {
        key: "dtype"
        value {
          type: DT_INT32
        }
      }
      attr {
        key: "value"
        value {
          tensor {
            dtype: DT_INT32
            tensor_shape {
            }
            int_val: 1
          }
        }
      }
    }
    node {
      name: "DeepFm_Estimate/auc/transpose/sub"
      op: "Sub"
      input: "DeepFm_Estimate/auc/transpose/Rank"
      input: "DeepFm_Estimate/auc/transpose/sub/y"
      attr {
        key: "T"
        value {
          type: DT_INT32
        }
      }
      attr {
        key: "_output_shapes"
        value {
          list {
            shape {
            }
          }
        }
      }
    }
    node {
      name: "DeepFm_Estimate/auc/transpose/Range/start"
      op: "Const"
      attr {
        key: "_output_shapes"
        value {
          list {
            shape {
            }
          }
        }
      }
      attr {
        key: "dtype"
        value {
          type: DT_INT32
        }
      }
      attr {
        key: "value"
        value {
          tensor {
            dtype: DT_INT32
            tensor_shape {
            }
            int_val: 0
          }
        }
      }
    }
    node {
      name: "DeepFm_Estimate/auc/transpose/Range/delta"
      op: "Const"
      attr {
        key: "_output_shapes"
        value {
          list {
            shape {
            }
          }
        }
      }
      attr {
        key: "dtype"
        value {
          type: DT_INT32
        }
      }
      attr {
        key: "value"
        value {
          tensor {
            dtype: DT_INT32
            tensor_shape {
            }
            int_val: 1
          }
        }
      }
    }
    node {
      name: "DeepFm_Estimate/auc/transpose/Range"
      op: "Range"
      input: "DeepFm_Estimate/auc/transpose/Range/start"
      input: "DeepFm_Estimate/auc/transpose/Rank"
      input: "DeepFm_Estimate/auc/transpose/Range/delta"
      attr {
        key: "Tidx"
        value {
          type: DT_INT32
        }
      }
      attr {
        key: "_output_shapes"
        value {
          list {
            shape {
              dim {
                size: 2
              }
            }
          }
        }
      }
    }
    node {
      name: "DeepFm_Estimate/auc/transpose/sub_1"
      op: "Sub"
      input: "DeepFm_Estimate/auc/transpose/sub"
      input: "DeepFm_Estimate/auc/transpose/Range"
      attr {
        key: "T"
        value {
          type: DT_INT32
        }
      }
      attr {
        key: "_output_shapes"
        value {
          list {
            shape {
              dim {
                size: 2
              }
            }
          }
        }
      }
    }
    node {
      name: "DeepFm_Estimate/auc/transpose"
      op: "Transpose"
      input: "DeepFm_Estimate/auc/Reshape"
      input: "DeepFm_Estimate/auc/transpose/sub_1"
      attr {
        key: "T"
        value {
          type: DT_FLOAT
        }
      }
      attr {
        key: "Tperm"
        value {
          type: DT_INT32
        }
      }
      attr {
        key: "_output_shapes"
        value {
          list {
            shape {
              dim {
                size: 1
              }
              dim {
                size: -1
              }
            }
          }
        }
      }
    }
    node {
      name: "DeepFm_Estimate/auc/Tile_1/multiples"
      op: "Const"
      attr {
        key: "_output_shapes"
        value {
          list {
            shape {
              dim {
                size: 2
              }
            }
          }
        }
      }
      attr {
        key: "dtype"
        value {
          type: DT_INT32
        }
      }
      attr {
        key: "value"
        value {
          tensor {
            dtype: DT_INT32
            tensor_shape {
              dim {
                size: 2
              }
            }
            tensor_content: "\310\000\000\000\001\000\000\000"
          }
        }
      }
    }
    node {
      name: "DeepFm_Estimate/auc/Tile_1"
      op: "Tile"
      input: "DeepFm_Estimate/auc/transpose"
      input: "DeepFm_Estimate/auc/Tile_1/multiples"
      attr {
        key: "T"
        value {
          type: DT_FLOAT
        }
      }
      attr {
        key: "Tmultiples"
        value {
          type: DT_INT32
        }
      }
      attr {
        key: "_output_shapes"
        value {
          list {
            shape {
              dim {
                size: 200
              }
              dim {
                size: -1
              }
            }
          }
        }
      }
    }
    node {
      name: "DeepFm_Estimate/auc/Greater"
      op: "Greater"
      input: "DeepFm_Estimate/auc/Tile_1"
      input: "DeepFm_Estimate/auc/Tile"
      attr {
        key: "T"
        value {
          type: DT_FLOAT
        }
      }
      attr {
        key: "_output_shapes"
        value {
          list {
            shape {
              dim {
                size: 200
              }
              dim {
                size: -1
              }
            }
          }
        }
      }
    }
    node {
      name: "DeepFm_Estimate/auc/LogicalNot"
      op: "LogicalNot"
      input: "DeepFm_Estimate/auc/Greater"
      attr {
        key: "_output_shapes"
        value {
          list {
            shape {
              dim {
                size: 200
              }
              dim {
                size: -1
              }
            }
          }
        }
      }
    }
    node {
      name: "DeepFm_Estimate/auc/Tile_2/multiples"
      op: "Const"
      attr {
        key: "_output_shapes"
        value {
          list {
            shape {
              dim {
                size: 2
              }
            }
          }
        }
      }
      attr {
        key: "dtype"
        value {
          type: DT_INT32
        }
      }
      attr {
        key: "value"
        value {
          tensor {
            dtype: DT_INT32
            tensor_shape {
              dim {
                size: 2
              }
            }
            tensor_content: "\310\000\000\000\001\000\000\000"
          }
        }
      }
    }
    node {
      name: "DeepFm_Estimate/auc/Tile_2"
      op: "Tile"
      input: "DeepFm_Estimate/auc/Reshape_1"
      input: "DeepFm_Estimate/auc/Tile_2/multiples"
      attr {
        key: "T"
        value {
          type: DT_BOOL
        }
      }
      attr {
        key: "Tmultiples"
        value {
          type: DT_INT32
        }
      }
      attr {
        key: "_output_shapes"
        value {
          list {
            shape {
              dim {
                size: 200
              }
              dim {
                size: -1
              }
            }
          }
        }
      }
    }
    node {
      name: "DeepFm_Estimate/auc/LogicalNot_1"
      op: "LogicalNot"
      input: "DeepFm_Estimate/auc/Tile_2"
      attr {
        key: "_output_shapes"
        value {
          list {
            shape {
              dim {
                size: 200
              }
              dim {
                size: -1
              }
            }
          }
        }
      }
    }
    node {
      name: "DeepFm_Estimate/auc/true_positives/Initializer/zeros"
      op: "Const"
      attr {
        key: "_class"
        value {
          list {
            s: "loc:@DeepFm_Estimate/auc/true_positives"
          }
        }
      }
      attr {
        key: "_output_shapes"
        value {
          list {
            shape {
              dim {
                size: 200
              }
            }
          }
        }
      }
      attr {
        key: "dtype"
        value {
          type: DT_FLOAT
        }
      }
      attr {
        key: "value"
        value {
          tensor {
            dtype: DT_FLOAT
            tensor_shape {
              dim {
                size: 200
              }
            }
            float_val: 0.0
          }
        }
      }
    }
    node {
      name: "DeepFm_Estimate/auc/true_positives"
      op: "VariableV2"
      attr {
        key: "_class"
        value {
          list {
            s: "loc:@DeepFm_Estimate/auc/true_positives"
          }
        }
      }
      attr {
        key: "_output_shapes"
        value {
          list {
            shape {
              dim {
                size: 200
              }
            }
          }
        }
      }
      attr {
        key: "container"
        value {
          s: ""
        }
      }
      attr {
        key: "dtype"
        value {
          type: DT_FLOAT
        }
      }
      attr {
        key: "shape"
        value {
          shape {
            dim {
              size: 200
            }
          }
        }
      }
      attr {
        key: "shared_name"
        value {
          s: ""
        }
      }
    }
    node {
      name: "DeepFm_Estimate/auc/true_positives/Assign"
      op: "Assign"
      input: "DeepFm_Estimate/auc/true_positives"
      input: "DeepFm_Estimate/auc/true_positives/Initializer/zeros"
      attr {
        key: "T"
        value {
          type: DT_FLOAT
        }
      }
      attr {
        key: "_class"
        value {
          list {
            s: "loc:@DeepFm_Estimate/auc/true_positives"
          }
        }
      }
      attr {
        key: "_output_shapes"
        value {
          list {
            shape {
              dim {
                size: 200
              }
            }
          }
        }
      }
      attr {
        key: "use_locking"
        value {
          b: true
        }
      }
      attr {
        key: "validate_shape"
        value {
          b: true
        }
      }
    }
    node {
      name: "DeepFm_Estimate/auc/true_positives/read"
      op: "Identity"
      input: "DeepFm_Estimate/auc/true_positives"
      attr {
        key: "T"
        value {
          type: DT_FLOAT
        }
      }
      attr {
        key: "_class"
        value {
          list {
            s: "loc:@DeepFm_Estimate/auc/true_positives"
          }
        }
      }
      attr {
        key: "_output_shapes"
        value {
          list {
            shape {
              dim {
                size: 200
              }
            }
          }
        }
      }
    }
    node {
      name: "DeepFm_Estimate/auc/LogicalAnd"
      op: "LogicalAnd"
      input: "DeepFm_Estimate/auc/Tile_2"
      input: "DeepFm_Estimate/auc/Greater"
      attr {
        key: "_output_shapes"
        value {
          list {
            shape {
              dim {
                size: 200
              }
              dim {
                size: -1
              }
            }
          }
        }
      }
    }
    node {
      name: "DeepFm_Estimate/auc/ToFloat_1"
      op: "Cast"
      input: "DeepFm_Estimate/auc/LogicalAnd"
      attr {
        key: "DstT"
        value {
          type: DT_FLOAT
        }
      }
      attr {
        key: "SrcT"
        value {
          type: DT_BOOL
        }
      }
      attr {
        key: "_output_shapes"
        value {
          list {
            shape {
              dim {
                size: 200
              }
              dim {
                size: -1
              }
            }
          }
        }
      }
    }
    node {
      name: "DeepFm_Estimate/auc/Sum/reduction_indices"
      op: "Const"
      attr {
        key: "_output_shapes"
        value {
          list {
            shape {
            }
          }
        }
      }
      attr {
        key: "dtype"
        value {
          type: DT_INT32
        }
      }
      attr {
        key: "value"
        value {
          tensor {
            dtype: DT_INT32
            tensor_shape {
            }
            int_val: 1
          }
        }
      }
    }
    node {
      name: "DeepFm_Estimate/auc/Sum"
      op: "Sum"
      input: "DeepFm_Estimate/auc/ToFloat_1"
      input: "DeepFm_Estimate/auc/Sum/reduction_indices"
      attr {
        key: "T"
        value {
          type: DT_FLOAT
        }
      }
      attr {
        key: "Tidx"
        value {
          type: DT_INT32
        }
      }
      attr {
        key: "_output_shapes"
        value {
          list {
            shape {
              dim {
                size: 200
              }
            }
          }
        }
      }
      attr {
        key: "keep_dims"
        value {
          b: false
        }
      }
    }
    node {
      name: "DeepFm_Estimate/auc/AssignAdd"
      op: "AssignAdd"
      input: "DeepFm_Estimate/auc/true_positives"
      input: "DeepFm_Estimate/auc/Sum"
      attr {
        key: "T"
        value {
          type: DT_FLOAT
        }
      }
      attr {
        key: "_class"
        value {
          list {
            s: "loc:@DeepFm_Estimate/auc/true_positives"
          }
        }
      }
      attr {
        key: "_output_shapes"
        value {
          list {
            shape {
              dim {
                size: 200
              }
            }
          }
        }
      }
      attr {
        key: "use_locking"
        value {
          b: false
        }
      }
    }
    node {
      name: "DeepFm_Estimate/auc/false_negatives/Initializer/zeros"
      op: "Const"
      attr {
        key: "_class"
        value {
          list {
            s: "loc:@DeepFm_Estimate/auc/false_negatives"
          }
        }
      }
      attr {
        key: "_output_shapes"
        value {
          list {
            shape {
              dim {
                size: 200
              }
            }
          }
        }
      }
      attr {
        key: "dtype"
        value {
          type: DT_FLOAT
        }
      }
      attr {
        key: "value"
        value {
          tensor {
            dtype: DT_FLOAT
            tensor_shape {
              dim {
                size: 200
              }
            }
            float_val: 0.0
          }
        }
      }
    }
    node {
      name: "DeepFm_Estimate/auc/false_negatives"
      op: "VariableV2"
      attr {
        key: "_class"
        value {
          list {
            s: "loc:@DeepFm_Estimate/auc/false_negatives"
          }
        }
      }
      attr {
        key: "_output_shapes"
        value {
          list {
            shape {
              dim {
                size: 200
              }
            }
          }
        }
      }
      attr {
        key: "container"
        value {
          s: ""
        }
      }
      attr {
        key: "dtype"
        value {
          type: DT_FLOAT
        }
      }
      attr {
        key: "shape"
        value {
          shape {
            dim {
              size: 200
            }
          }
        }
      }
      attr {
        key: "shared_name"
        value {
          s: ""
        }
      }
    }
    node {
      name: "DeepFm_Estimate/auc/false_negatives/Assign"
      op: "Assign"
      input: "DeepFm_Estimate/auc/false_negatives"
      input: "DeepFm_Estimate/auc/false_negatives/Initializer/zeros"
      attr {
        key: "T"
        value {
          type: DT_FLOAT
        }
      }
      attr {
        key: "_class"
        value {
          list {
            s: "loc:@DeepFm_Estimate/auc/false_negatives"
          }
        }
      }
      attr {
        key: "_output_shapes"
        value {
          list {
            shape {
              dim {
                size: 200
              }
            }
          }
        }
      }
      attr {
        key: "use_locking"
        value {
          b: true
        }
      }
      attr {
        key: "validate_shape"
        value {
          b: true
        }
      }
    }
    node {
      name: "DeepFm_Estimate/auc/false_negatives/read"
      op: "Identity"
      input: "DeepFm_Estimate/auc/false_negatives"
      attr {
        key: "T"
        value {
          type: DT_FLOAT
        }
      }
      attr {
        key: "_class"
        value {
          list {
            s: "loc:@DeepFm_Estimate/auc/false_negatives"
          }
        }
      }
      attr {
        key: "_output_shapes"
        value {
          list {
            shape {
              dim {
                size: 200
              }
            }
          }
        }
      }
    }
    node {
      name: "DeepFm_Estimate/auc/LogicalAnd_1"
      op: "LogicalAnd"
      input: "DeepFm_Estimate/auc/Tile_2"
      input: "DeepFm_Estimate/auc/LogicalNot"
      attr {
        key: "_output_shapes"
        value {
          list {
            shape {
              dim {
                size: 200
              }
              dim {
                size: -1
              }
            }
          }
        }
      }
    }
    node {
      name: "DeepFm_Estimate/auc/ToFloat_2"
      op: "Cast"
      input: "DeepFm_Estimate/auc/LogicalAnd_1"
      attr {
        key: "DstT"
        value {
          type: DT_FLOAT
        }
      }
      attr {
        key: "SrcT"
        value {
          type: DT_BOOL
        }
      }
      attr {
        key: "_output_shapes"
        value {
          list {
            shape {
              dim {
                size: 200
              }
              dim {
                size: -1
              }
            }
          }
        }
      }
    }
    node {
      name: "DeepFm_Estimate/auc/Sum_1/reduction_indices"
      op: "Const"
      attr {
        key: "_output_shapes"
        value {
          list {
            shape {
            }
          }
        }
      }
      attr {
        key: "dtype"
        value {
          type: DT_INT32
        }
      }
      attr {
        key: "value"
        value {
          tensor {
            dtype: DT_INT32
            tensor_shape {
            }
            int_val: 1
          }
        }
      }
    }
    node {
      name: "DeepFm_Estimate/auc/Sum_1"
      op: "Sum"
      input: "DeepFm_Estimate/auc/ToFloat_2"
      input: "DeepFm_Estimate/auc/Sum_1/reduction_indices"
      attr {
        key: "T"
        value {
          type: DT_FLOAT
        }
      }
      attr {
        key: "Tidx"
        value {
          type: DT_INT32
        }
      }
      attr {
        key: "_output_shapes"
        value {
          list {
            shape {
              dim {
                size: 200
              }
            }
          }
        }
      }
      attr {
        key: "keep_dims"
        value {
          b: false
        }
      }
    }
    node {
      name: "DeepFm_Estimate/auc/AssignAdd_1"
      op: "AssignAdd"
      input: "DeepFm_Estimate/auc/false_negatives"
      input: "DeepFm_Estimate/auc/Sum_1"
      attr {
        key: "T"
        value {
          type: DT_FLOAT
        }
      }
      attr {
        key: "_class"
        value {
          list {
            s: "loc:@DeepFm_Estimate/auc/false_negatives"
          }
        }
      }
      attr {
        key: "_output_shapes"
        value {
          list {
            shape {
              dim {
                size: 200
              }
            }
          }
        }
      }
      attr {
        key: "use_locking"
        value {
          b: false
        }
      }
    }
    node {
      name: "DeepFm_Estimate/auc/true_negatives/Initializer/zeros"
      op: "Const"
      attr {
        key: "_class"
        value {
          list {
            s: "loc:@DeepFm_Estimate/auc/true_negatives"
          }
        }
      }
      attr {
        key: "_output_shapes"
        value {
          list {
            shape {
              dim {
                size: 200
              }
            }
          }
        }
      }
      attr {
        key: "dtype"
        value {
          type: DT_FLOAT
        }
      }
      attr {
        key: "value"
        value {
          tensor {
            dtype: DT_FLOAT
            tensor_shape {
              dim {
                size: 200
              }
            }
            float_val: 0.0
          }
        }
      }
    }
    node {
      name: "DeepFm_Estimate/auc/true_negatives"
      op: "VariableV2"
      attr {
        key: "_class"
        value {
          list {
            s: "loc:@DeepFm_Estimate/auc/true_negatives"
          }
        }
      }
      attr {
        key: "_output_shapes"
        value {
          list {
            shape {
              dim {
                size: 200
              }
            }
          }
        }
      }
      attr {
        key: "container"
        value {
          s: ""
        }
      }
      attr {
        key: "dtype"
        value {
          type: DT_FLOAT
        }
      }
      attr {
        key: "shape"
        value {
          shape {
            dim {
              size: 200
            }
          }
        }
      }
      attr {
        key: "shared_name"
        value {
          s: ""
        }
      }
    }
    node {
      name: "DeepFm_Estimate/auc/true_negatives/Assign"
      op: "Assign"
      input: "DeepFm_Estimate/auc/true_negatives"
      input: "DeepFm_Estimate/auc/true_negatives/Initializer/zeros"
      attr {
        key: "T"
        value {
          type: DT_FLOAT
        }
      }
      attr {
        key: "_class"
        value {
          list {
            s: "loc:@DeepFm_Estimate/auc/true_negatives"
          }
        }
      }
      attr {
        key: "_output_shapes"
        value {
          list {
            shape {
              dim {
                size: 200
              }
            }
          }
        }
      }
      attr {
        key: "use_locking"
        value {
          b: true
        }
      }
      attr {
        key: "validate_shape"
        value {
          b: true
        }
      }
    }
    node {
      name: "DeepFm_Estimate/auc/true_negatives/read"
      op: "Identity"
      input: "DeepFm_Estimate/auc/true_negatives"
      attr {
        key: "T"
        value {
          type: DT_FLOAT
        }
      }
      attr {
        key: "_class"
        value {
          list {
            s: "loc:@DeepFm_Estimate/auc/true_negatives"
          }
        }
      }
      attr {
        key: "_output_shapes"
        value {
          list {
            shape {
              dim {
                size: 200
              }
            }
          }
        }
      }
    }
    node {
      name: "DeepFm_Estimate/auc/LogicalAnd_2"
      op: "LogicalAnd"
      input: "DeepFm_Estimate/auc/LogicalNot_1"
      input: "DeepFm_Estimate/auc/LogicalNot"
      attr {
        key: "_output_shapes"
        value {
          list {
            shape {
              dim {
                size: 200
              }
              dim {
                size: -1
              }
            }
          }
        }
      }
    }
    node {
      name: "DeepFm_Estimate/auc/ToFloat_3"
      op: "Cast"
      input: "DeepFm_Estimate/auc/LogicalAnd_2"
      attr {
        key: "DstT"
        value {
          type: DT_FLOAT
        }
      }
      attr {
        key: "SrcT"
        value {
          type: DT_BOOL
        }
      }
      attr {
        key: "_output_shapes"
        value {
          list {
            shape {
              dim {
                size: 200
              }
              dim {
                size: -1
              }
            }
          }
        }
      }
    }
    node {
      name: "DeepFm_Estimate/auc/Sum_2/reduction_indices"
      op: "Const"
      attr {
        key: "_output_shapes"
        value {
          list {
            shape {
            }
          }
        }
      }
      attr {
        key: "dtype"
        value {
          type: DT_INT32
        }
      }
      attr {
        key: "value"
        value {
          tensor {
            dtype: DT_INT32
            tensor_shape {
            }
            int_val: 1
          }
        }
      }
    }
    node {
      name: "DeepFm_Estimate/auc/Sum_2"
      op: "Sum"
      input: "DeepFm_Estimate/auc/ToFloat_3"
      input: "DeepFm_Estimate/auc/Sum_2/reduction_indices"
      attr {
        key: "T"
        value {
          type: DT_FLOAT
        }
      }
      attr {
        key: "Tidx"
        value {
          type: DT_INT32
        }
      }
      attr {
        key: "_output_shapes"
        value {
          list {
            shape {
              dim {
                size: 200
              }
            }
          }
        }
      }
      attr {
        key: "keep_dims"
        value {
          b: false
        }
      }
    }
    node {
      name: "DeepFm_Estimate/auc/AssignAdd_2"
      op: "AssignAdd"
      input: "DeepFm_Estimate/auc/true_negatives"
      input: "DeepFm_Estimate/auc/Sum_2"
      attr {
        key: "T"
        value {
          type: DT_FLOAT
        }
      }
      attr {
        key: "_class"
        value {
          list {
            s: "loc:@DeepFm_Estimate/auc/true_negatives"
          }
        }
      }
      attr {
        key: "_output_shapes"
        value {
          list {
            shape {
              dim {
                size: 200
              }
            }
          }
        }
      }
      attr {
        key: "use_locking"
        value {
          b: false
        }
      }
    }
    node {
      name: "DeepFm_Estimate/auc/false_positives/Initializer/zeros"
      op: "Const"
      attr {
        key: "_class"
        value {
          list {
            s: "loc:@DeepFm_Estimate/auc/false_positives"
          }
        }
      }
      attr {
        key: "_output_shapes"
        value {
          list {
            shape {
              dim {
                size: 200
              }
            }
          }
        }
      }
      attr {
        key: "dtype"
        value {
          type: DT_FLOAT
        }
      }
      attr {
        key: "value"
        value {
          tensor {
            dtype: DT_FLOAT
            tensor_shape {
              dim {
                size: 200
              }
            }
            float_val: 0.0
          }
        }
      }
    }
    node {
      name: "DeepFm_Estimate/auc/false_positives"
      op: "VariableV2"
      attr {
        key: "_class"
        value {
          list {
            s: "loc:@DeepFm_Estimate/auc/false_positives"
          }
        }
      }
      attr {
        key: "_output_shapes"
        value {
          list {
            shape {
              dim {
                size: 200
              }
            }
          }
        }
      }
      attr {
        key: "container"
        value {
          s: ""
        }
      }
      attr {
        key: "dtype"
        value {
          type: DT_FLOAT
        }
      }
      attr {
        key: "shape"
        value {
          shape {
            dim {
              size: 200
            }
          }
        }
      }
      attr {
        key: "shared_name"
        value {
          s: ""
        }
      }
    }
    node {
      name: "DeepFm_Estimate/auc/false_positives/Assign"
      op: "Assign"
      input: "DeepFm_Estimate/auc/false_positives"
      input: "DeepFm_Estimate/auc/false_positives/Initializer/zeros"
      attr {
        key: "T"
        value {
          type: DT_FLOAT
        }
      }
      attr {
        key: "_class"
        value {
          list {
            s: "loc:@DeepFm_Estimate/auc/false_positives"
          }
        }
      }
      attr {
        key: "_output_shapes"
        value {
          list {
            shape {
              dim {
                size: 200
              }
            }
          }
        }
      }
      attr {
        key: "use_locking"
        value {
          b: true
        }
      }
      attr {
        key: "validate_shape"
        value {
          b: true
        }
      }
    }
    node {
      name: "DeepFm_Estimate/auc/false_positives/read"
      op: "Identity"
      input: "DeepFm_Estimate/auc/false_positives"
      attr {
        key: "T"
        value {
          type: DT_FLOAT
        }
      }
      attr {
        key: "_class"
        value {
          list {
            s: "loc:@DeepFm_Estimate/auc/false_positives"
          }
        }
      }
      attr {
        key: "_output_shapes"
        value {
          list {
            shape {
              dim {
                size: 200
              }
            }
          }
        }
      }
    }
    node {
      name: "DeepFm_Estimate/auc/LogicalAnd_3"
      op: "LogicalAnd"
      input: "DeepFm_Estimate/auc/LogicalNot_1"
      input: "DeepFm_Estimate/auc/Greater"
      attr {
        key: "_output_shapes"
        value {
          list {
            shape {
              dim {
                size: 200
              }
              dim {
                size: -1
              }
            }
          }
        }
      }
    }
    node {
      name: "DeepFm_Estimate/auc/ToFloat_4"
      op: "Cast"
      input: "DeepFm_Estimate/auc/LogicalAnd_3"
      attr {
        key: "DstT"
        value {
          type: DT_FLOAT
        }
      }
      attr {
        key: "SrcT"
        value {
          type: DT_BOOL
        }
      }
      attr {
        key: "_output_shapes"
        value {
          list {
            shape {
              dim {
                size: 200
              }
              dim {
                size: -1
              }
            }
          }
        }
      }
    }
    node {
      name: "DeepFm_Estimate/auc/Sum_3/reduction_indices"
      op: "Const"
      attr {
        key: "_output_shapes"
        value {
          list {
            shape {
            }
          }
        }
      }
      attr {
        key: "dtype"
        value {
          type: DT_INT32
        }
      }
      attr {
        key: "value"
        value {
          tensor {
            dtype: DT_INT32
            tensor_shape {
            }
            int_val: 1
          }
        }
      }
    }
    node {
      name: "DeepFm_Estimate/auc/Sum_3"
      op: "Sum"
      input: "DeepFm_Estimate/auc/ToFloat_4"
      input: "DeepFm_Estimate/auc/Sum_3/reduction_indices"
      attr {
        key: "T"
        value {
          type: DT_FLOAT
        }
      }
      attr {
        key: "Tidx"
        value {
          type: DT_INT32
        }
      }
      attr {
        key: "_output_shapes"
        value {
          list {
            shape {
              dim {
                size: 200
              }
            }
          }
        }
      }
      attr {
        key: "keep_dims"
        value {
          b: false
        }
      }
    }
    node {
      name: "DeepFm_Estimate/auc/AssignAdd_3"
      op: "AssignAdd"
      input: "DeepFm_Estimate/auc/false_positives"
      input: "DeepFm_Estimate/auc/Sum_3"
      attr {
        key: "T"
        value {
          type: DT_FLOAT
        }
      }
      attr {
        key: "_class"
        value {
          list {
…
        key: "value"
        value {
          tensor {
            dtype: DT_STRING
            tensor_shape {
              dim {
                size: 1
              }
            }
            string_val: ""
          }
        }
      }
    }
    node {
      name: "save_1/RestoreV2_9"
      op: "RestoreV2"
      input: "save_1/Const"
      input: "save_1/RestoreV2_9/tensor_names"
      input: "save_1/RestoreV2_9/shape_and_slices"
      attr {
        key: "_output_shapes"
        value {
          list {
            shape {
              unknown_rank: true
            }
          }
        }
      }
      attr {
        key: "dtypes"
        value {
          list {
            type: DT_FLOAT
          }
        }
      }
    }
    node {
      name: "save_1/Assign_9"
      op: "Assign"
      input: "deep/weights_layer1"
      input: "save_1/RestoreV2_9"
      attr {
        key: "T"
        value {
          type: DT_FLOAT
        }
      }
      attr {
        key: "_class"
        value {
          list {
            s: "loc:@deep/weights_layer1"
          }
        }
      }
      attr {
        key: "_output_shapes"
        value {
          list {
            shape {
              dim {
                size: 64
              }
              dim {
                size: 64
              }
            }
          }
        }
      }
      attr {
        key: "use_locking"
        value {
          b: true
        }
      }
      attr {
        key: "validate_shape"
        value {
          b: true
        }
      }
    }
    node {
      name: "save_1/RestoreV2_10/tensor_names"
      op: "Const"
      attr {
        key: "_output_shapes"
        value {
          list {
            shape {
              dim {
                size: 1
              }
            }
          }
        }
      }
      attr {
        key: "dtype"
        value {
          type: DT_STRING
        }
      }
      attr {
        key: "value"
        value {
          tensor {
            dtype: DT_STRING
            tensor_shape {
              dim {
                size: 1
              }
            }
            string_val: "deep/weights_layer1/Adam"
          }
        }
      }
    }
    node {
      name: "save_1/RestoreV2_10/shape_and_slices"
      op: "Const"
      attr {
        key: "_output_shapes"
        value {
          list {
            shape {
              dim {
                size: 1
              }
            }
          }
        }
      }
      attr {
        key: "dtype"
        value {
          type: DT_STRING
        }
      }
      attr {
        key: "value"
        value {
          tensor {
            dtype: DT_STRING
            tensor_shape {
              dim {
                size: 1
              }
            }
            string_val: ""
          }
        }
      }
    }
    node {
      name: "save_1/RestoreV2_10"
      op: "RestoreV2"
      input: "save_1/Const"
      input: "save_1/RestoreV2_10/tensor_names"
      input: "save_1/RestoreV2_10/shape_and_slices"
      attr {
        key: "_output_shapes"
        value {
          list {
            shape {
              unknown_rank: true
            }
          }
        }
      }
      attr {
        key: "dtypes"
        value {
          list {
            type: DT_FLOAT
          }
        }
      }
    }
    node {
      name: "save_1/Assign_10"
      op: "Assign"
      input: "deep/weights_layer1/Adam"
      input: "save_1/RestoreV2_10"
      attr {
        key: "T"
        value {
          type: DT_FLOAT
        }
      }
      attr {
        key: "_class"
        value {
          list {
            s: "loc:@deep/weights_layer1"
          }
        }
      }
      attr {
        key: "_output_shapes"
        value {
          list {
            shape {
              dim {
                size: 64
              }
              dim {
                size: 64
              }
            }
          }
        }
      }
      attr {
        key: "use_locking"
        value {
          b: true
        }
      }
      attr {
        key: "validate_shape"
        value {
          b: true
        }
      }
    }
    node {
      name: "save_1/RestoreV2_11/tensor_names"
      op: "Const"
      attr {
        key: "_output_shapes"
        value {
          list {
            shape {
              dim {
                size: 1
              }
            }
          }
        }
      }
      attr {
        key: "dtype"
        value {
          type: DT_STRING
        }
      }
      attr {
        key: "value"
        value {
          tensor {
            dtype: DT_STRING
            tensor_shape {
              dim {
                size: 1
              }
            }
            string_val: "deep/weights_layer1/Adam_1"
          }
        }
      }
    }
    node {
      name: "save_1/RestoreV2_11/shape_and_slices"
      op: "Const"
      attr {
        key: "_output_shapes"
        value {
          list {
            shape {
              dim {
                size: 1
              }
            }
          }
        }
      }
      attr {
        key: "dtype"
        value {
          type: DT_STRING
        }
      }
      attr {
        key: "value"
        value {
          tensor {
            dtype: DT_STRING
            tensor_shape {
              dim {
                size: 1
              }
            }
            string_val: ""
          }
        }
      }
    }
    node {
      name: "save_1/RestoreV2_11"
      op: "RestoreV2"
      input: "save_1/Const"
      input: "save_1/RestoreV2_11/tensor_names"
      input: "save_1/RestoreV2_11/shape_and_slices"
      attr {
        key: "_output_shapes"
        value {
          list {
            shape {
              unknown_rank: true
            }
          }
        }
      }
      attr {
        key: "dtypes"
        value {
          list {
            type: DT_FLOAT
          }
        }
      }
    }
    node {
      name: "save_1/Assign_11"
      op: "Assign"
      input: "deep/weights_layer1/Adam_1"
      input: "save_1/RestoreV2_11"
      attr {
        key: "T"
        value {
          type: DT_FLOAT
        }
      }
      attr {
        key: "_class"
        value {
          list {
            s: "loc:@deep/weights_layer1"
          }
        }
      }
      attr {
        key: "_output_shapes"
        value {
          list {
            shape {
              dim {
                size: 64
              }
              dim {
                size: 64
              }
            }
          }
        }
      }
      attr {
        key: "use_locking"
        value {
          b: true
        }
      }
      attr {
        key: "validate_shape"
        value {
          b: true
        }
      }
    }
    node {
      name: "save_1/RestoreV2_12/tensor_names"
      op: "Const"
      attr {
        key: "_output_shapes"
        value {
          list {
            shape {
              dim {
                size: 1
              }
            }
          }
        }
      }
      attr {
        key: "dtype"
        value {
          type: DT_STRING
        }
      }
      attr {
        key: "value"
        value {
          tensor {
            dtype: DT_STRING
            tensor_shape {
              dim {
                size: 1
              }
            }
            string_val: "deepfm/concat_bias0"
          }
        }
      }
    }
    node {
      name: "save_1/RestoreV2_12/shape_and_slices"
      op: "Const"
      attr {
        key: "_output_shapes"
        value {
          list {
            shape {
              dim {
                size: 1
              }
            }
          }
        }
      }
      attr {
        key: "dtype"
        value {
          type: DT_STRING
        }
      }
      attr {
        key: "value"
        value {
          tensor {
            dtype: DT_STRING
            tensor_shape {
              dim {
                size: 1
              }
            }
            string_val: ""
          }
        }
      }
    }
    node {
      name: "save_1/RestoreV2_12"
      op: "RestoreV2"
      input: "save_1/Const"
      input: "save_1/RestoreV2_12/tensor_names"
      input: "save_1/RestoreV2_12/shape_and_slices"
      attr {
        key: "_output_shapes"
        value {
          list {
            shape {
              unknown_rank: true
            }
          }
        }
      }
      attr {
        key: "dtypes"
        value {
          list {
            type: DT_FLOAT
          }
        }
      }
    }
    node {
      name: "save_1/Assign_12"
      op: "Assign"
      input: "deepfm/concat_bias0"
      input: "save_1/RestoreV2_12"
      attr {
        key: "T"
        value {
          type: DT_FLOAT
        }
      }
      attr {
        key: "_class"
        value {
          list {
            s: "loc:@deepfm/concat_bias0"
          }
        }
      }
      attr {
        key: "_output_shapes"
        value {
          list {
            shape {
            }
          }
        }
      }
      attr {
        key: "use_locking"
        value {
          b: true
        }
      }
      attr {
        key: "validate_shape"
        value {
          b: true
        }
      }
    }
    node {
      name: "save_1/RestoreV2_13/tensor_names"
      op: "Const"
      attr {
        key: "_output_shapes"
        value {
          list {
            shape {
              dim {
                size: 1
              }
            }
          }
        }
      }
      attr {
        key: "dtype"
        value {
          type: DT_STRING
        }
      }
      attr {
        key: "value"
        value {
          tensor {
            dtype: DT_STRING
            tensor_shape {
              dim {
                size: 1
              }
            }
            string_val: "deepfm/concat_bias0/Adam"
          }
        }
      }
    }
    node {
      name: "save_1/RestoreV2_13/shape_and_slices"
      op: "Const"
      attr {
        key: "_output_shapes"
        value {
          list {
            shape {
              dim {
                size: 1
              }
            }
          }
        }
      }
      attr {
        key: "dtype"
        value {
          type: DT_STRING
        }
      }
      attr {
        key: "value"
        value {
          tensor {
            dtype: DT_STRING
            tensor_shape {
              dim {
                size: 1
              }
            }
            string_val: ""
          }
        }
      }
    }
    node {
      name: "save_1/RestoreV2_13"
      op: "RestoreV2"
      input: "save_1/Const"
      input: "save_1/RestoreV2_13/tensor_names"
      input: "save_1/RestoreV2_13/shape_and_slices"
      attr {
        key: "_output_shapes"
        value {
          list {
            shape {
              unknown_rank: true
            }
          }
        }
      }
      attr {
        key: "dtypes"
        value {
          list {
            type: DT_FLOAT
          }
        }
      }
    }
    node {
      name: "save_1/Assign_13"
      op: "Assign"
      input: "deepfm/concat_bias0/Adam"
      input: "save_1/RestoreV2_13"
      attr {
        key: "T"
        value {
          type: DT_FLOAT
        }
      }
      attr {
        key: "_class"
        value {
          list {
            s: "loc:@deepfm/concat_bias0"
          }
        }
      }
      attr {
        key: "_output_shapes"
        value {
          list {
            shape {
            }
          }
        }
      }
      attr {
        key: "use_locking"
        value {
          b: true
        }
      }
      attr {
        key: "validate_shape"
        value {
          b: true
        }
      }
    }
    node {
      name: "save_1/RestoreV2_14/tensor_names"
      op: "Const"
      attr {
        key: "_output_shapes"
        value {
          list {
            shape {
              dim {
                size: 1
              }
            }
          }
        }
      }
      attr {
        key: "dtype"
        value {
          type: DT_STRING
        }
      }
      attr {
        key: "value"
        value {
          tensor {
            dtype: DT_STRING
            tensor_shape {
              dim {
                size: 1
              }
            }
            string_val: "deepfm/concat_bias0/Adam_1"
          }
        }
      }
    }
    node {
      name: "save_1/RestoreV2_14/shape_and_slices"
      op: "Const"
      attr {
        key: "_output_shapes"
        value {
          list {
            shape {
              dim {
                size: 1
              }
            }
          }
        }
      }
      attr {
        key: "dtype"
        value {
          type: DT_STRING
        }
      }
      attr {
        key: "value"
        value {
          tensor {
            dtype: DT_STRING
            tensor_shape {
              dim {
                size: 1
              }
            }
            string_val: ""
          }
        }
      }
    }
    node {
      name: "save_1/RestoreV2_14"
      op: "RestoreV2"
      input: "save_1/Const"
      input: "save_1/RestoreV2_14/tensor_names"
      input: "save_1/RestoreV2_14/shape_and_slices"
      attr {
        key: "_output_shapes"
        value {
          list {
            shape {
              unknown_rank: true
            }
          }
        }
      }
      attr {
        key: "dtypes"
        value {
          list {
            type: DT_FLOAT
          }
        }
      }
    }
    node {
      name: "save_1/Assign_14"
      op: "Assign"
      input: "deepfm/concat_bias0/Adam_1"
      input: "save_1/RestoreV2_14"
      attr {
        key: "T"
        value {
          type: DT_FLOAT
        }
      }
      attr {
        key: "_class"
        value {
          list {
            s: "loc:@deepfm/concat_bias0"
          }
        }
      }
      attr {
        key: "_output_shapes"
        value {
          list {
            shape {
            }
          }
        }
      }
      attr {
        key: "use_locking"
        value {
          b: true
        }
      }
      attr {
        key: "validate_shape"
        value {
          b: true
        }
      }
    }
    node {
      name: "save_1/RestoreV2_15/tensor_names"
      op: "Const"
      attr {
        key: "_output_shapes"
        value {
          list {
            shape {
              dim {
                size: 1
              }
            }
          }
        }
      }
      attr {
        key: "dtype"
        value {
          type: DT_STRING
        }
      }
      attr {
        key: "value"
        value {
          tensor {
            dtype: DT_STRING
            tensor_shape {
              dim {
                size: 1
              }
            }
            string_val: "deepfm/concat_projection0"
          }
        }
      }
    }
    node {
      name: "save_1/RestoreV2_15/shape_and_slices"
      op: "Const"
      attr {
        key: "_output_shapes"
        value {
          list {
            shape {
              dim {
                size: 1
              }
            }
          }
        }
      }
      attr {
        key: "dtype"
        value {
          type: DT_STRING
        }
      }
      attr {
        key: "value"
        value {
          tensor {
            dtype: DT_STRING
            tensor_shape {
              dim {
                size: 1
              }
            }
            string_val: ""
          }
        }
      }
    }
    node {
      name: "save_1/RestoreV2_15"
      op: "RestoreV2"
      input: "save_1/Const"
      input: "save_1/RestoreV2_15/tensor_names"
      input: "save_1/RestoreV2_15/shape_and_slices"
      attr {
        key: "_output_shapes"
        value {
          list {
            shape {
              unknown_rank: true
            }
          }
        }
      }
      attr {
        key: "dtypes"
        value {
          list {
            type: DT_FLOAT
          }
        }
      }
    }
    node {
      name: "save_1/Assign_15"
      op: "Assign"
      input: "deepfm/concat_projection0"
      input: "save_1/RestoreV2_15"
      attr {
        key: "T"
        value {
          type: DT_FLOAT
        }
      }
      attr {
        key: "_class"
        value {
          list {
            s: "loc:@deepfm/concat_projection0"
          }
        }
      }
      attr {
        key: "_output_shapes"
        value {
          list {
            shape {
              dim {
                size: 83
              }
              dim {
                size: 1
              }
            }
          }
        }
      }
      attr {
        key: "use_locking"
        value {
          b: true
        }
      }
      attr {
        key: "validate_shape"
        value {
          b: true
        }
      }
    }
    node {
      name: "save_1/RestoreV2_16/tensor_names"
      op: "Const"
      attr {
        key: "_output_shapes"
        value {
          list {
            shape {
              dim {
                size: 1
              }
            }
          }
        }
      }
      attr {
        key: "dtype"
        value {
          type: DT_STRING
        }
      }
      attr {
        key: "value"
        value {
          tensor {
            dtype: DT_STRING
            tensor_shape {
              dim {
                size: 1
              }
            }
            string_val: "deepfm/concat_projection0/Adam"
          }
        }
      }
    }
    node {
      name: "save_1/RestoreV2_16/shape_and_slices"
      op: "Const"
      attr {
        key: "_output_shapes"
        value {
          list {
            shape {
              dim {
                size: 1
              }
            }
          }
        }
      }
      attr {
        key: "dtype"
        value {
          type: DT_STRING
        }
      }
      attr {
        key: "value"
        value {
          tensor {
            dtype: DT_STRING
            tensor_shape {
              dim {
                size: 1
              }
            }
            string_val: ""
          }
        }
      }
    }
    node {
      name: "save_1/RestoreV2_16"
      op: "RestoreV2"
      input: "save_1/Const"
      input: "save_1/RestoreV2_16/tensor_names"
      input: "save_1/RestoreV2_16/shape_and_slices"
      attr {
        key: "_output_shapes"
        value {
          list {
            shape {
              unknown_rank: true
            }
          }
        }
      }
      attr {
        key: "dtypes"
        value {
          list {
            type: DT_FLOAT
          }
        }
      }
    }
    node {
      name: "save_1/Assign_16"
      op: "Assign"
      input: "deepfm/concat_projection0/Adam"
      input: "save_1/RestoreV2_16"
      attr {
        key: "T"
        value {
          type: DT_FLOAT
        }
      }
      attr {
        key: "_class"
        value {
          list {
            s: "loc:@deepfm/concat_projection0"
          }
        }
      }
      attr {
        key: "_output_shapes"
        value {
          list {
            shape {
              dim {
                size: 83
              }
              dim {
                size: 1
              }
            }
          }
        }
      }
      attr {
        key: "use_locking"
        value {
          b: true
        }
      }
      attr {
        key: "validate_shape"
        value {
          b: true
        }
      }
    }
    node {
      name: "save_1/RestoreV2_17/tensor_names"
      op: "Const"
      attr {
        key: "_output_shapes"
        value {
          list {
            shape {
              dim {
                size: 1
              }
            }
          }
        }
      }
      attr {
        key: "dtype"
        value {
          type: DT_STRING
        }
      }
      attr {
        key: "value"
        value {
          tensor {
            dtype: DT_STRING
            tensor_shape {
              dim {
                size: 1
              }
            }
            string_val: "deepfm/concat_projection0/Adam_1"
          }
        }
      }
    }
    node {
      name: "save_1/RestoreV2_17/shape_and_slices"
      op: "Const"
      attr {
        key: "_output_shapes"
        value {
          list {
            shape {
              dim {
                size: 1
              }
            }
          }
        }
      }
      attr {
        key: "dtype"
        value {
          type: DT_STRING
        }
      }
      attr {
        key: "value"
        value {
          tensor {
            dtype: DT_STRING
            tensor_shape {
              dim {
                size: 1
              }
            }
            string_val: ""
          }
        }
      }
    }
    node {
      name: "save_1/RestoreV2_17"
      op: "RestoreV2"
      input: "save_1/Const"
      input: "save_1/RestoreV2_17/tensor_names"
      input: "save_1/RestoreV2_17/shape_and_slices"
      attr {
        key: "_output_shapes"
        value {
          list {
            shape {
              unknown_rank: true
            }
          }
        }
      }
      attr {
        key: "dtypes"
        value {
          list {
            type: DT_FLOAT
          }
        }
      }
    }
    node {
      name: "save_1/Assign_17"
      op: "Assign"
      input: "deepfm/concat_projection0/Adam_1"
      input: "save_1/RestoreV2_17"
      attr {
        key: "T"
        value {
          type: DT_FLOAT
        }
      }
      attr {
        key: "_class"
        value {
          list {
            s: "loc:@deepfm/concat_projection0"
          }
        }
      }
      attr {
        key: "_output_shapes"
        value {
          list {
            shape {
              dim {
                size: 83
              }
              dim {
                size: 1
              }
            }
          }
        }
      }
      attr {
        key: "use_locking"
        value {
          b: true
        }
      }
      attr {
        key: "validate_shape"
        value {
          b: true
        }
      }
    }
    node {
      name: "save_1/RestoreV2_18/tensor_names"
      op: "Const"
      attr {
        key: "_output_shapes"
        value {
          list {
            shape {
              dim {
                size: 1
              }
            }
          }
        }
      }
      attr {
        key: "dtype"
        value {
          type: DT_STRING
        }
      }
      attr {
        key: "value"
        value {
          tensor {
            dtype: DT_STRING
            tensor_shape {
              dim {
                size: 1
              }
            }
            string_val: "fm/feature_bias_0"
          }
        }
      }
    }
    node {
      name: "save_1/RestoreV2_18/shape_and_slices"
      op: "Const"
      attr {
        key: "_output_shapes"
        value {
          list {
            shape {
              dim {
                size: 1
              }
            }
          }
        }
      }
      attr {
        key: "dtype"
        value {
          type: DT_STRING
        }
      }
      attr {
        key: "value"
        value {
          tensor {
            dtype: DT_STRING
            tensor_shape {
              dim {
                size: 1
              }
            }
            string_val: ""
          }
        }
      }
    }
    node {
      name: "save_1/RestoreV2_18"
      op: "RestoreV2"
      input: "save_1/Const"
      input: "save_1/RestoreV2_18/tensor_names"
      input: "save_1/RestoreV2_18/shape_and_slices"
      attr {
        key: "_output_shapes"
        value {
          list {
            shape {
              unknown_rank: true
            }
          }
        }
      }
      attr {
        key: "dtypes"
        value {
          list {
            type: DT_FLOAT
          }
        }
      }
    }
    node {
      name: "save_1/Assign_18"
      op: "Assign"
      input: "fm/feature_bias_0"
      input: "save_1/RestoreV2_18"
      attr {
        key: "T"
        value {
          type: DT_FLOAT
        }
      }
      attr {
        key: "_class"
        value {
          list {
            s: "loc:@fm/feature_bias_0"
          }
        }
      }
      attr {
        key: "_output_shapes"
        value {
          list {
            shape {
              dim {
                size: 9
              }
              dim {
                size: 1
              }
            }
          }
        }
      }
      attr {
        key: "use_locking"
        value {
          b: true
        }
      }
      attr {
        key: "validate_shape"
        value {
          b: true
        }
      }
    }
    node {
      name: "save_1/RestoreV2_19/tensor_names"
      op: "Const"
      attr {
        key: "_output_shapes"
        value {
          list {
            shape {
              dim {
                size: 1
              }
            }
          }
        }
      }
      attr {
        key: "dtype"
        value {
          type: DT_STRING
        }
      }
      attr {
        key: "value"
        value {
          tensor {
            dtype: DT_STRING
            tensor_shape {
              dim {
                size: 1
              }
            }
            string_val: "fm/feature_bias_0/Adam"
          }
        }
      }
    }
    node {
      name: "save_1/RestoreV2_19/shape_and_slices"
      op: "Const"
      attr {
        key: "_output_shapes"
        value {
          list {
            shape {
              dim {
                size: 1
              }
            }
          }
        }
      }
      attr {
        key: "dtype"
        value {
          type: DT_STRING
        }
      }
      attr {
        key: "value"
        value {
          tensor {
            dtype: DT_STRING
            tensor_shape {
              dim {
                size: 1
              }
            }
            string_val: ""
          }
        }
      }
    }
    node {
      name: "save_1/RestoreV2_19"
      op: "RestoreV2"
      input: "save_1/Const"
      input: "save_1/RestoreV2_19/tensor_names"
      input: "save_1/RestoreV2_19/shape_and_slices"
      attr {
        key: "_output_shapes"
        value {
          list {
            shape {
              unknown_rank: true
            }
          }
        }
      }
      attr {
        key: "dtypes"
        value {
          list {
            type: DT_FLOAT
          }
        }
      }
    }
    node {
      name: "save_1/Assign_19"
      op: "Assign"
      input: "fm/feature_bias_0/Adam"
      input: "save_1/RestoreV2_19"
      attr {
        key: "T"
        value {
          type: DT_FLOAT
        }
      }
      attr {
        key: "_class"
        value {
          list {
            s: "loc:@fm/feature_bias_0"
          }
        }
      }
      attr {
        key: "_output_shapes"
        value {
          list {
            shape {
              dim {
                size: 9
              }
              dim {
                size: 1
              }
            }
          }
        }
      }
      attr {
        key: "use_locking"
        value {
          b: true
        }
      }
      attr {
        key: "validate_shape"
        value {
          b: true
        }
      }
    }
    node {
      name: "save_1/RestoreV2_20/tensor_names"
      op: "Const"
      attr {
        key: "_output_shapes"
        value {
          list {
            shape {
              dim {
                size: 1
              }
            }
          }
        }
      }
      attr {
        key: "dtype"
        value {
          type: DT_STRING
        }
      }
      attr {
        key: "value"
        value {
          tensor {
            dtype: DT_STRING
            tensor_shape {
              dim {
                size: 1
              }
            }
            string_val: "fm/feature_bias_0/Adam_1"
          }
        }
      }
    }
    node {
      name: "save_1/RestoreV2_20/shape_and_slices"
      op: "Const"
      attr {
        key: "_output_shapes"
        value {
          list {
            shape {
              dim {
                size: 1
              }
            }
          }
        }
      }
      attr {
        key: "dtype"
        value {
          type: DT_STRING
        }
      }
      attr {
        key: "value"
        value {
          tensor {
            dtype: DT_STRING
            tensor_shape {
              dim {
                size: 1
              }
            }
            string_val: ""
          }
        }
      }
    }
    node {
      name: "save_1/RestoreV2_20"
      op: "RestoreV2"
      input: "save_1/Const"
      input: "save_1/RestoreV2_20/tensor_names"
      input: "save_1/RestoreV2_20/shape_and_slices"
      attr {
        key: "_output_shapes"
        value {
          list {
            shape {
              unknown_rank: true
            }
          }
        }
      }
      attr {
        key: "dtypes"
        value {
          list {
            type: DT_FLOAT
          }
        }
      }
    }
    node {
      name: "save_1/Assign_20"
      op: "Assign"
      input: "fm/feature_bias_0/Adam_1"
      input: "save_1/RestoreV2_20"
      attr {
        key: "T"
        value {
          type: DT_FLOAT
        }
      }
      attr {
        key: "_class"
        value {
          list {
            s: "loc:@fm/feature_bias_0"
          }
        }
      }
      attr {
        key: "_output_shapes"
        value {
          list {
            shape {
              dim {
                size: 9
              }
              dim {
                size: 1
              }
            }
          }
        }
      }
      attr {
        key: "use_locking"
        value {
          b: true
        }
      }
      attr {
        key: "validate_shape"
        value {
          b: true
        }
      }
    }
    node {
      name: "save_1/RestoreV2_21/tensor_names"
      op: "Const"
      attr {
        key: "_output_shapes"
        value {
          list {
            shape {
              dim {
                size: 1
              }
            }
          }
        }
      }
      attr {
        key: "dtype"
        value {
          type: DT_STRING
        }
      }
      attr {
        key: "value"
        value {
          tensor {
            dtype: DT_STRING
            tensor_shape {
              dim {
                size: 1
              }
            }
            string_val: "fm/feature_embeddings"
          }
        }
      }
    }
    node {
      name: "save_1/RestoreV2_21/shape_and_slices"
      op: "Const"
      attr {
        key: "_output_shapes"
        value {
          list {
            shape {
              dim {
                size: 1
              }
            }
          }
        }
      }
      attr {
        key: "dtype"
        value {
          type: DT_STRING
        }
      }
      attr {
        key: "value"
        value {
          tensor {
            dtype: DT_STRING
            tensor_shape {
              dim {
                size: 1
              }
            }
            string_val: ""
          }
        }
      }
    }
    node {
      name: "save_1/RestoreV2_21"
      op: "RestoreV2"
      input: "save_1/Const"
      input: "save_1/RestoreV2_21/tensor_names"
      input: "save_1/RestoreV2_21/shape_and_slices"
      attr {
        key: "_output_shapes"
        value {
          list {
            shape {
              unknown_rank: true
            }
          }
        }
      }
      attr {
        key: "dtypes"
        value {
          list {
            type: DT_FLOAT
          }
        }
      }
    }
    node {
      name: "save_1/Assign_21"
      op: "Assign"
      input: "fm/feature_embeddings"
      input: "save_1/RestoreV2_21"
      attr {
        key: "T"
        value {
          type: DT_FLOAT
        }
      }
      attr {
        key: "_class"
        value {
          list {
            s: "loc:@fm/feature_embeddings"
          }
        }
      }
      attr {
        key: "_output_shapes"
        value {
          list {
            shape {
              dim {
                size: 9
              }
              dim {
                size: 10
              }
            }
          }
        }
      }
      attr {
        key: "use_locking"
        value {
          b: true
        }
      }
      attr {
        key: "validate_shape"
        value {
          b: true
        }
      }
    }
    node {
      name: "save_1/RestoreV2_22/tensor_names"
      op: "Const"
      attr {
        key: "_output_shapes"
        value {
          list {
            shape {
              dim {
                size: 1
              }
            }
          }
        }
      }
      attr {
        key: "dtype"
        value {
          type: DT_STRING
        }
      }
      attr {
        key: "value"
        value {
          tensor {
            dtype: DT_STRING
            tensor_shape {
              dim {
                size: 1
              }
            }
            string_val: "fm/feature_embeddings/Adam"
          }
        }
      }
    }
    node {
      name: "save_1/RestoreV2_22/shape_and_slices"
      op: "Const"
      attr {
        key: "_output_shapes"
        value {
          list {
            shape {
              dim {
                size: 1
              }
            }
          }
        }
      }
      attr {
        key: "dtype"
        value {
          type: DT_STRING
        }
      }
      attr {
        key: "value"
        value {
          tensor {
            dtype: DT_STRING
            tensor_shape {
              dim {
                size: 1
              }
            }
            string_val: ""
          }
        }
      }
    }
    node {
      name: "save_1/RestoreV2_22"
      op: "RestoreV2"
      input: "save_1/Const"
      input: "save_1/RestoreV2_22/tensor_names"
      input: "save_1/RestoreV2_22/shape_and_slices"
      attr {
        key: "_output_shapes"
        value {
          list {
            shape {
              unknown_rank: true
            }
          }
        }
      }
      attr {
        key: "dtypes"
        value {
          list {
            type: DT_FLOAT
          }
        }
      }
    }
    node {
      name: "save_1/Assign_22"
      op: "Assign"
      input: "fm/feature_embeddings/Adam"
      input: "save_1/RestoreV2_22"
      attr {
        key: "T"
        value {
          type: DT_FLOAT
        }
      }
      attr {
        key: "_class"
        value {
          list {
            s: "loc:@fm/feature_embeddings"
          }
        }
      }
      attr {
        key: "_output_shapes"
        value {
          list {
            shape {
              dim {
                size: 9
              }
              dim {
                size: 10
              }
            }
          }
        }
      }
      attr {
        key: "use_locking"
        value {
          b: true
        }
      }
      attr {
        key: "validate_shape"
        value {
          b: true
        }
      }
    }
    node {
      name: "save_1/RestoreV2_23/tensor_names"
      op: "Const"
      attr {
        key: "_output_shapes"
        value {
          list {
            shape {
              dim {
                size: 1
              }
            }
          }
        }
      }
      attr {
        key: "dtype"
        value {
          type: DT_STRING
        }
      }
      attr {
        key: "value"
        value {
          tensor {
            dtype: DT_STRING
            tensor_shape {
              dim {
                size: 1
              }
            }
            string_val: "fm/feature_embeddings/Adam_1"
          }
        }
      }
    }
    node {
      name: "save_1/RestoreV2_23/shape_and_slices"
      op: "Const"
      attr {
        key: "_output_shapes"
        value {
          list {
            shape {
              dim {
                size: 1
              }
            }
          }
        }
      }
      attr {
        key: "dtype"
        value {
          type: DT_STRING
        }
      }
      attr {
        key: "value"
        value {
          tensor {
            dtype: DT_STRING
            tensor_shape {
              dim {
                size: 1
              }
            }
            string_val: ""
          }
        }
      }
    }
    node {
      name: "save_1/RestoreV2_23"
      op: "RestoreV2"
      input: "save_1/Const"
      input: "save_1/RestoreV2_23/tensor_names"
      input: "save_1/RestoreV2_23/shape_and_slices"
      attr {
        key: "_output_shapes"
        value {
          list {
            shape {
              unknown_rank: true
            }
          }
        }
      }
      attr {
        key: "dtypes"
        value {
          list {
            type: DT_FLOAT
          }
        }
      }
    }
    node {
      name: "save_1/Assign_23"
      op: "Assign"
      input: "fm/feature_embeddings/Adam_1"
      input: "save_1/RestoreV2_23"
      attr {
        key: "T"
        value {
          type: DT_FLOAT
        }
      }
      attr {
        key: "_class"
        value {
          list {
            s: "loc:@fm/feature_embeddings"
          }
        }
      }
      attr {
        key: "_output_shapes"
        value {
          list {
            shape {
              dim {
                size: 9
              }
              dim {
                size: 10
              }
            }
          }
        }
      }
      attr {
        key: "use_locking"
        value {
          b: true
        }
      }
      attr {
        key: "validate_shape"
        value {
          b: true
        }
      }
    }
    node {
      name: "save_1/RestoreV2_24/tensor_names"
      op: "Const"
      attr {
        key: "_output_shapes"
        value {
          list {
            shape {
              dim {
                size: 1
              }
            }
          }
        }
      }
      attr {
        key: "dtype"
        value {
          type: DT_STRING
        }
      }
      attr {
        key: "value"
        value {
          tensor {
            dtype: DT_STRING
            tensor_shape {
              dim {
                size: 1
              }
            }
            string_val: "train/beta1_power"
          }
        }
      }
    }
    node {
      name: "save_1/RestoreV2_24/shape_and_slices"
      op: "Const"
      attr {
        key: "_output_shapes"
        value {
          list {
            shape {
              dim {
                size: 1
              }
            }
          }
        }
      }
      attr {
        key: "dtype"
        value {
          type: DT_STRING
        }
      }
      attr {
        key: "value"
        value {
          tensor {
            dtype: DT_STRING
            tensor_shape {
              dim {
                size: 1
              }
            }
            string_val: ""
          }
        }
      }
    }
    node {
      name: "save_1/RestoreV2_24"
      op: "RestoreV2"
      input: "save_1/Const"
      input: "save_1/RestoreV2_24/tensor_names"
      input: "save_1/RestoreV2_24/shape_and_slices"
      attr {
        key: "_output_shapes"
        value {
          list {
            shape {
              unknown_rank: true
            }
          }
        }
      }
      attr {
        key: "dtypes"
        value {
          list {
            type: DT_FLOAT
          }
        }
      }
    }
    node {
      name: "save_1/Assign_24"
      op: "Assign"
      input: "train/beta1_power"
      input: "save_1/RestoreV2_24"
      attr {
        key: "T"
        value {
          type: DT_FLOAT
        }
      }
      attr {
        key: "_class"
        value {
          list {
            s: "loc:@deep/weights_bias0"
          }
        }
      }
      attr {
        key: "_output_shapes"
        value {
          list {
            shape {
            }
          }
        }
      }
      attr {
        key: "use_locking"
        value {
          b: true
        }
      }
      attr {
        key: "validate_shape"
        value {
          b: true
        }
      }
    }
    node {
      name: "save_1/RestoreV2_25/tensor_names"
      op: "Const"
      attr {
        key: "_output_shapes"
        value {
          list {
            shape {
              dim {
                size: 1
              }
            }
          }
        }
      }
      attr {
        key: "dtype"
        value {
          type: DT_STRING
        }
      }
      attr {
        key: "value"
        value {
          tensor {
            dtype: DT_STRING
            tensor_shape {
              dim {
                size: 1
              }
            }
            string_val: "train/beta2_power"
          }
        }
      }
    }
    node {
      name: "save_1/RestoreV2_25/shape_and_slices"
      op: "Const"
      attr {
        key: "_output_shapes"
        value {
          list {
            shape {
              dim {
                size: 1
              }
            }
          }
        }
      }
      attr {
        key: "dtype"
        value {
          type: DT_STRING
        }
      }
      attr {
        key: "value"
        value {
          tensor {
            dtype: DT_STRING
            tensor_shape {
              dim {
                size: 1
              }
            }
            string_val: ""
          }
        }
      }
    }
    node {
      name: "save_1/RestoreV2_25"
      op: "RestoreV2"
      input: "save_1/Const"
      input: "save_1/RestoreV2_25/tensor_names"
      input: "save_1/RestoreV2_25/shape_and_slices"
      attr {
        key: "_output_shapes"
        value {
          list {
            shape {
              unknown_rank: true
            }
          }
        }
      }
      attr {
        key: "dtypes"
        value {
          list {
            type: DT_FLOAT
          }
        }
      }
    }
    node {
      name: "save_1/Assign_25"
      op: "Assign"
      input: "train/beta2_power"
      input: "save_1/RestoreV2_25"
      attr {
        key: "T"
        value {
          type: DT_FLOAT
        }
      }
      attr {
        key: "_class"
        value {
          list {
            s: "loc:@deep/weights_bias0"
          }
        }
      }
      attr {
        key: "_output_shapes"
        value {
          list {
            shape {
            }
          }
        }
      }
      attr {
        key: "use_locking"
        value {
          b: true
        }
      }
      attr {
        key: "validate_shape"
        value {
          b: true
        }
      }
    }
    node {
      name: "save_1/restore_shard"
      op: "NoOp"
      input: "^save_1/Assign"
      input: "^save_1/Assign_1"
      input: "^save_1/Assign_2"
      input: "^save_1/Assign_3"
      input: "^save_1/Assign_4"
      input: "^save_1/Assign_5"
      input: "^save_1/Assign_6"
      input: "^save_1/Assign_7"
      input: "^save_1/Assign_8"
      input: "^save_1/Assign_9"
      input: "^save_1/Assign_10"
      input: "^save_1/Assign_11"
      input: "^save_1/Assign_12"
      input: "^save_1/Assign_13"
      input: "^save_1/Assign_14"
      input: "^save_1/Assign_15"
      input: "^save_1/Assign_16"
      input: "^save_1/Assign_17"
      input: "^save_1/Assign_18"
      input: "^save_1/Assign_19"
      input: "^save_1/Assign_20"
      input: "^save_1/Assign_21"
      input: "^save_1/Assign_22"
      input: "^save_1/Assign_23"
      input: "^save_1/Assign_24"
      input: "^save_1/Assign_25"
    }
    node {
      name: "save_1/restore_all"
      op: "NoOp"
      input: "^save_1/restore_shard"
    }
    versions {
      producer: 24
    }
  }
  saver_def {
    filename_tensor_name: "save_1/Const:0"
    save_tensor_name: "save_1/Identity:0"
    restore_op_name: "save_1/restore_all"
    max_to_keep: 5
    sharded: true
    keep_checkpoint_every_n_hours: 10000.0
    version: V2
  }
  collection_def {
    key: "local_variables"
    value {
      bytes_list {
        value: "\n$DeepFm_Estimate/auc/true_positives:0\022)DeepFm_Estimate/auc/true_positives/Assign\032)DeepFm_Estimate/auc/true_positives/read:0"
        value: "\n%DeepFm_Estimate/auc/false_negatives:0\022*DeepFm_Estimate/auc/false_negatives/Assign\032*DeepFm_Estimate/auc/false_negatives/read:0"
        value: "\n$DeepFm_Estimate/auc/true_negatives:0\022)DeepFm_Estimate/auc/true_negatives/Assign\032)DeepFm_Estimate/auc/true_negatives/read:0"
        value: "\n%DeepFm_Estimate/auc/false_positives:0\022*DeepFm_Estimate/auc/false_positives/Assign\032*DeepFm_Estimate/auc/false_positives/read:0"
      }
    }
  }
  collection_def {
    key: "summaries"
    value {
      node_list {
        value: "deep_fm/score:0"
        value: "DeepFm_Estimate/loss:0"
        value: "DeepFm_Estimate/auc1:0"
        value: "DeepFm_Estimate/auc2:0"
      }
    }
  }
  collection_def {
    key: "train_op"
    value {
      node_list {
        value: "train/Adam"
      }
    }
  }
  collection_def {
    key: "trainable_variables"
    value {
      bytes_list {
        value: "\n\027fm/feature_embeddings:0\022\034fm/feature_embeddings/Assign\032\034fm/feature_embeddings/read:0"
        value: "\n\023fm/feature_bias_0:0\022\030fm/feature_bias_0/Assign\032\030fm/feature_bias_0/read:0"
        value: "\n\025deep/weights_layer0:0\022\032deep/weights_layer0/Assign\032\032deep/weights_layer0/read:0"
        value: "\n\024deep/weights_bias0:0\022\031deep/weights_bias0/Assign\032\031deep/weights_bias0/read:0"
        value: "\n\025deep/weights_layer1:0\022\032deep/weights_layer1/Assign\032\032deep/weights_layer1/read:0"
        value: "\n\024deep/weights_bias1:0\022\031deep/weights_bias1/Assign\032\031deep/weights_bias1/read:0"
        value: "\n\033deepfm/concat_projection0:0\022 deepfm/concat_projection0/Assign\032 deepfm/concat_projection0/read:0"
        value: "\n\025deepfm/concat_bias0:0\022\032deepfm/concat_bias0/Assign\032\032deepfm/concat_bias0/read:0"
      }
    }
  }
  collection_def {
    key: "variables"
    value {
      bytes_list {
        value: "\n\027fm/feature_embeddings:0\022\034fm/feature_embeddings/Assign\032\034fm/feature_embeddings/read:0"
        value: "\n\023fm/feature_bias_0:0\022\030fm/feature_bias_0/Assign\032\030fm/feature_bias_0/read:0"
        value: "\n\025deep/weights_layer0:0\022\032deep/weights_layer0/Assign\032\032deep/weights_layer0/read:0"
        value: "\n\024deep/weights_bias0:0\022\031deep/weights_bias0/Assign\032\031deep/weights_bias0/read:0"
        value: "\n\025deep/weights_layer1:0\022\032deep/weights_layer1/Assign\032\032deep/weights_layer1/read:0"
        value: "\n\024deep/weights_bias1:0\022\031deep/weights_bias1/Assign\032\031deep/weights_bias1/read:0"
        value: "\n\033deepfm/concat_projection0:0\022 deepfm/concat_projection0/Assign\032 deepfm/concat_projection0/read:0"
        value: "\n\025deepfm/concat_bias0:0\022\032deepfm/concat_bias0/Assign\032\032deepfm/concat_bias0/read:0"
        value: "\n\023train/beta1_power:0\022\030train/beta1_power/Assign\032\030train/beta1_power/read:0"
        value: "\n\023train/beta2_power:0\022\030train/beta2_power/Assign\032\030train/beta2_power/read:0"
        value: "\n\034fm/feature_embeddings/Adam:0\022!fm/feature_embeddings/Adam/Assign\032!fm/feature_embeddings/Adam/read:0"
        value: "\n\036fm/feature_embeddings/Adam_1:0\022#fm/feature_embeddings/Adam_1/Assign\032#fm/feature_embeddings/Adam_1/read:0"
        value: "\n\030fm/feature_bias_0/Adam:0\022\035fm/feature_bias_0/Adam/Assign\032\035fm/feature_bias_0/Adam/read:0"
        value: "\n\032fm/feature_bias_0/Adam_1:0\022\037fm/feature_bias_0/Adam_1/Assign\032\037fm/feature_bias_0/Adam_1/read:0"
        value: "\n\032deep/weights_layer0/Adam:0\022\037deep/weights_layer0/Adam/Assign\032\037deep/weights_layer0/Adam/read:0"
        value: "\n\034deep/weights_layer0/Adam_1:0\022!deep/weights_layer0/Adam_1/Assign\032!deep/weights_layer0/Adam_1/read:0"
        value: "\n\031deep/weights_bias0/Adam:0\022\036deep/weights_bias0/Adam/Assign\032\036deep/weights_bias0/Adam/read:0"
        value: "\n\033deep/weights_bias0/Adam_1:0\022 deep/weights_bias0/Adam_1/Assign\032 deep/weights_bias0/Adam_1/read:0"
        value: "\n\032deep/weights_layer1/Adam:0\022\037deep/weights_layer1/Adam/Assign\032\037deep/weights_layer1/Adam/read:0"
        value: "\n\034deep/weights_layer1/Adam_1:0\022!deep/weights_layer1/Adam_1/Assign\032!deep/weights_layer1/Adam_1/read:0"
        value: "\n\031deep/weights_bias1/Adam:0\022\036deep/weights_bias1/Adam/Assign\032\036deep/weights_bias1/Adam/read:0"
        value: "\n\033deep/weights_bias1/Adam_1:0\022 deep/weights_bias1/Adam_1/Assign\032 deep/weights_bias1/Adam_1/read:0"
        value: "\n deepfm/concat_projection0/Adam:0\022%deepfm/concat_projection0/Adam/Assign\032%deepfm/concat_projection0/Adam/read:0"
        value: "\n\"deepfm/concat_projection0/Adam_1:0\022\'deepfm/concat_projection0/Adam_1/Assign\032\'deepfm/concat_projection0/Adam_1/read:0"
        value: "\n\032deepfm/concat_bias0/Adam:0\022\037deepfm/concat_bias0/Adam/Assign\032\037deepfm/concat_bias0/Adam/read:0"
        value: "\n\034deepfm/concat_bias0/Adam_1:0\022!deepfm/concat_bias0/Adam_1/Assign\032!deepfm/concat_bias0/Adam_1/read:0"
      }
    }
  }
  signature_def {
    key: "serving_default"
    value {
      inputs {
        key: "inputs"
        value {
          name: "input:0"
          dtype: DT_FLOAT
          tensor_shape {
            dim {
              size: -1
            }
            dim {
              size: 9
            }
          }
        }
      }
      outputs {
        key: "results"
        value {
          name: "score:0"
          dtype: DT_FLOAT
          tensor_shape {
            dim {
              size: -1
            }
            dim {
              size: 1
            }
          }
        }
      }
      method_name: "tensorflow/serving/predict"
    }
  }
}
